shapes1.onnx (onnx, 340978 bytes, 10 tensors)

conv1.weight f4 [8, 3, 5, 5]
000000 51 d9 6c bd 5b 36 68 3b d1 72 a2 bc 8d f2 a6 3d
       -0.057824437 0.003543279 -0.01983014 0.08151732
000010 ea f3 8b 3d e0 af cd 3c cc fb cf 3d 6c 70 c1 bd
       0.06833632 0.025108278 0.10155448 -0.09445271
000020 06 fb 0d bc d7 06 d8 3d f1 f0 18 bd 30 e2 81 bd
       -0.008665806 0.105481796 -0.037339155 -0.0634197
000030 1c 92 dc bc b0 71 34 3d 79 2e b7 3b 12 fd 1b 3c
       -0.02692514 0.044053733 0.005590257 0.009520786
000040 01 cf 6f 3d ef 78 a1 bd 13 48 2c 3d 8a a9 b1 3b
       0.058547024 -0.078843944 0.042060923 0.005421822
000050 f5 aa 5a bd ef 15 ab bd 32 e5 d6 bd e7 51 4b bd
       -0.053385694 -0.08353793 -0.10492934 -0.049638655
000060 29 39 85 bd 7c 49 c5 3d b6 1a c5 3d 11 ed c6 3d
       -0.06505043 0.09633157 0.09624235 0.097131856
000070 33 5a e4 bd fb 83 ac bd c6 d5 04 3b c5 39 09 bc
       -0.11150017 -0.08423611 0.002026902 -0.00837559
000080 8b 64 d4 3d 37 1b 5a bd d4 d1 ba bd 9d 11 bf 3d
       0.103707395 -0.05324861 -0.09122053 0.09329531
000090 99 0c df 3c d1 a2 2f bd fa 25 84 bc 40 5d 45 bd
       0.027227687 -0.042879883 -0.01613139 -0.048184633
0000a0 89 93 d9 3c 52 4e 03 3c 52 4e 1e 3d fc 08 76 bd
       0.026559608 0.0080142785 0.03864891 -0.060067162
0000b0 90 12 ba 3d af a6 c2 bd 36 96 f8 bc 01 9b d0 3d
       0.09085572 -0.095044486 -0.030345064 0.10185815
0000c0 ce a4 61 bd aa 27 a8 3c 57 93 94 bc a6 1f bc bd
       -0.05508881 0.020526726 -0.018136663 -0.09185724
0000d0 39 83 5d bd df 99 e9 3d ed 4c b0 3d af 49 85 bd
       -0.05408022 0.11406302 0.086084224 -0.06508195
0000e0 77 dc f7 bc 75 66 21 3d 44 02 ea 3d de 3d 79 3d
       -0.030256493 0.03940435 0.114262134 0.060850017
0000f0 b1 53 03 bd 04 a2 ad 3d 0f 88 c9 3c e1 14 49 bd
       -0.032062236 0.08478168 0.02460101 -0.049092177
000100 f5 73 bd 3c 0b 7f d9 bc a8 92 2b bc 17 cf 09 3d
       0.023126582 -0.026549837 -0.010471977 0.033644762
000110 70 d8 e0 bd c0 8a 91 3d 25 0c 2d ba 0f 27 96 bd
       -0.10978782 0.071065426 -0.0006601236 -0.073316686
000120 a4 c0 74 bd 77 69 35 3d d7 98 8b 3d e9 fd a2 bd
       -0.05975403 0.044290032 0.06816261 -0.07958586
000130 28 d6 98 bd 5d 27 55 bd 81 86 5b 3d 29 db 22 3d
       -0.07462722 -0.052039493 0.05359507 0.03975979
000140 dd 9c 16 3c 3b eb 3d 3b 98 01 ce 3d 0d d3 36 3d
       0.009192673 0.002897932 0.10058898 0.044634867
000150 ec 6a d4 bd 32 20 6c bc 4f 72 97 3d 27 46 91 ba
       -0.10371956 -0.014411973 0.073948495 -0.0011083529
000160 d0 dd c9 3d 90 a3 bc 3c a3 42 06 3d 50 93 88 3d
       0.098567605 0.023027211 0.032778393 0.06668723
000170 9c 75 2d 3d bb 31 d4 3c 4f 58 99 3d c8 5d 8f 3c
       0.04234849 0.02590262 0.07487547 0.017500773
000180 2e 63 4b bb ed 19 d4 bc 64 91 c1 3d 61 a9 96 3d
       -0.0031034457 -0.025891269 0.09451559 0.07356525
000190 3e 4a 39 3c b0 cf 82 3c a9 82 d0 bd f8 e4 da 3c
       0.011309205 0.015968174 -0.101811714 0.026720509
0001a0 ca 28 0f 3d db ea a6 3d a0 1e 92 3d d7 af 0f bd
       0.03495101 0.08150264 0.071347475 -0.035079803
0001b0 9a 08 34 bd 8a 82 7f bd 6c a8 cc bc 97 37 84 bd
       -0.043953516 -0.06238035 -0.024982654 -0.064559154
0001c0 8e 75 c8 bd 47 c2 8c bd a7 c3 41 3d d0 73 6c bd
       -0.09788047 -0.06872993 0.04730573 -0.057727635
0001d0 0b 44 e8 3d d6 53 a6 bc 58 00 9c bd 98 d8 44 bd
       0.11341103 -0.020303648 -0.07617253 -0.048058122
0001e0 96 08 56 3b 9f 41 83 bd 77 6a 6e bc e0 d8 55 3d
       0.0032658926 -0.064090006 -0.01455175 0.05220878
0001f0 8e 1e 9d 3d 6e c7 87 3d 8c dd 2b bd 1e 12 ee bc
       0.076718435 0.06629835 -0.04195933 -0.029061373
000200 a7 66 c3 bd a2 92 a5 bd 8f 07 5f 3d b5 03 b9 bd
       -0.09541064 -0.080846086 0.054450568 -0.0903391
000210 9b 3d 56 3c 3b a8 16 3d 64 31 c2 3d ee e7 52 3d
       0.013076211 0.03678153 0.09482077 0.051490717
000220 34 d2 d1 bd 2b 80 92 3d f2 8a c3 bd 6a 72 b3 3d
       -0.10245171 0.07153352 -0.09547986 0.08762057
000230 bf e8 dd bc 2d 67 d3 bd 9f 87 4d 3d 23 37 cb bd
       -0.027088521 -0.103224136 0.050178166 -0.09922626
000240 7e 7e 00 bd b6 69 84 3d e2 40 a2 3d 23 d7 96 3d
       -0.031370632 0.06465475 0.07922532 0.07365253
000250 1a 22 31 3d 14 30 44 3d 95 c2 67 3d 4f 90 93 bd
       0.043245412 0.047897413 0.056582052 -0.07205259
000260 5b ab 83 bd 00 28 21 3d f5 dc 95 3d 64 26 de bd
       -0.06429168 0.039344788 0.07317535 -0.10847166
000270 50 b5 04 bd b2 b2 57 3c be 29 d5 bd 1a 49 c6 bd
       -0.032399476 0.013165163 -0.10408352 -0.09681912
000280 7e 34 fa bc 21 a7 ba bc 7f 79 e5 bd 8f c0 11 bd
       -0.030542608 -0.022784771 -0.11204814 -0.03558403
000290 a3 c1 c5 3d f2 7c 87 3d 98 b2 ba 3d 44 97 50 3c
       0.09656074 0.06615628 0.09116095 0.012731377
0002a0 84 56 9e 3d 91 fd 26 3d d0 ce ce bd 0b 37 84 3d
       0.07731345 0.040769164 -0.1009804 0.06455811
0002b0 c7 2c 4c bd 72 ee ab bc f5 d9 11 bd 64 3e 39 3b
       -0.04984739 -0.020987723 -0.03560825 0.0028265947
0002c0 9f f3 a2 bd 1b 5b a2 bd 59 f9 9a bd 18 25 d3 bd
       -0.07956623 -0.07927533 -0.075670905 -0.103098094
0002d0 36 8f 8a bc 18 f9 c3 3d c5 6b e6 bd 2e ef db bd
       -0.016913991 0.09568995 -0.11251024 -0.10738979
0002e0 ba f4 8a bd c1 42 6c 3d 2d 02 76 bd c0 0c de bd
       -0.06784959 0.05768085 -0.06006067 -0.108422756
0002f0 fa ce 0f 3c e4 90 7e bd b1 a9 74 3d 2c 16 f4 bd
       0.008777374 -0.062149897 0.059732143 -0.119182914
000300 32 1f 9e 3c af af ca bc 37 d9 71 bc ab 79 a6 3d
       0.019301984 -0.024741976 -0.014761261 0.08128675
000310 d8 e3 a6 bd d3 e0 d0 bd a5 af 25 bd 7c 3d 12 3d
       -0.081489265 -0.10199132 -0.04045071 0.035703167
000320 cf 0c c5 3d 4f fe ed bd 53 99 ad 3d 60 69 14 bc
       0.09621584 -0.11620771 0.0847651 -0.0090583265
000330 9a 1d fb 3c 3f 96 ae bb 0e ee 4b 3d 07 5e 01 3d
       0.030653764 -0.0053279693 0.049787574 0.031583812
000340 a3 92 77 3c bc d4 ad 3d e4 f5 8c 3d 9d 92 be 3d
       0.0151106445 0.084878415 0.068828374 0.09305308
000350 f9 1b bf 3c fd 44 b7 3d cd 9c f4 3c ee 92 0f bd
       0.023328768 0.08948705 0.029859925 -0.035052232
000360 ea 47 d6 3d 44 b7 c2 bd 2f 22 12 bd 82 76 b8 3d
       0.10462935 -0.095076114 -0.03567713 0.090069786
000370 53 04 6b 3b ee a9 a4 b8 e6 4d 64 3d 92 fd 99 bd
       0.0035860732 -7.851781e-05 0.055738352 -0.07519068
000380 2b af 82 bd 7f df 12 bb 83 81 e4 bd 52 fa 93 3d
       -0.06381067 -0.0022411046 -0.11157515 0.07225479
000390 f4 88 d3 3c 65 18 1d 3b ac 31 d0 bc cb 40 88 3d
       0.02582214 0.002397084 -0.02541431 0.06652983
0003a0 fe 43 e5 bd 2f bf 7a 3d f2 11 87 3d 47 fb 4f 3d
       -0.11194609 0.061217483 0.0659522 0.050776746
0003b0 e3 4e 9a bd 5d 95 dc bd b7 3b f1 3a a6 59 78 3d
       -0.07534578 -0.10770676 0.0018404637 0.06063237
0003c0 ee 20 17 bd b8 21 06 bc 78 2b 9f bd 63 4a b6 bb
       -0.03689664 -0.00818675 -0.07771963 -0.005563067
0003d0 95 19 db 3d f1 50 19 3d f9 d3 44 bc 4a 91 b1 bd
       0.10698239 0.037430707 -0.012013429 -0.0867029
0003e0 c6 ad d3 bd 3e a0 75 bd 63 52 92 3d 28 09 37 bc
       -0.10335879 -0.059967272 0.0714462 -0.011171617
0003f0 1d 45 33 bc 14 a7 26 bd 1d 8b 67 3c d6 70 91 ba
       -0.010941771 -0.040686682 0.014132288 -0.001109625

conv1.bias f4 [8]
000000 8d 18 9b bd 4d 76 9c 3d 01 f3 8c 3d c1 87 0f bd
       -0.07573042 0.076397516 0.06882287 -0.035041574
000010 51 6f 98 bc 54 f5 05 3d 12 d8 1a 3d 4c ec c9 3d
       -0.018607767 0.032704666 0.037803717 0.09859523

conv2.weight f4 [16, 8, 5, 5]
000000 09 55 6c 3d 5f 3a ae bc 36 e0 0d 3d 4a 62 fe bc
       0.057698283 -0.021268068 0.034637652 -0.031052727
000010 f2 d2 62 bd 4e db 4c 3c 0c 35 7e 3d 70 fd 7c bd
       -0.055376954 0.012503458 0.06206231 -0.061765134
000020 45 90 82 3b 24 cc 2c bc d8 96 71 3d 4c 2e 79 bc
       0.0039844834 -0.010546718 0.058981746 -0.015208792
000030 b0 e4 77 bc ae 30 58 bd 05 5f 09 bd 4d 2a 3b bd
       -0.015130207 -0.0527808 -0.033537883 -0.045694638
000040 e5 50 08 bd be 29 37 bd 2a 7f 35 3d 86 60 36 3d
       -0.033280272 -0.044717543 0.044310726 0.044525646
000050 64 fd 23 bd ed f1 32 3d 06 40 6e bc 30 c9 1c bd
       -0.040036574 0.04368775 -0.014541632 -0.038277805
000060 83 a7 88 bc c7 be 66 bd 02 76 4e bd bf 84 fb 3c
       -0.016681438 -0.056334283 -0.05040551 0.030702947
000070 fd 5e 74 bd 8e 0a 7e bd 1e 67 f1 bc 0b c8 e9 bc
       -0.0596609 -0.062021784 -0.029468115 -0.02853777
000080 93 0e a3 bc 08 34 cb bc b2 5a f7 bc d8 2b 65 bd
       -0.01990441 -0.024805084 -0.030194614 -0.055950016
000090 1f ab fd 3a 7c ab 8d bc 06 03 8d 3d a0 a8 45 3a
       0.0019353366 -0.017293684 0.06885342 0.00075400807
0000a0 fe ed 40 3d 35 64 1b 3d 5b 8c 52 3d 45 c6 3e bd
       0.047101967 0.03793736 0.051403385 -0.046575803
0000b0 01 bb 5c bd 9b 68 81 bd fb d3 45 bd a7 3b 18 3d
       -0.05388928 -0.0631878 -0.048297863 0.037166264
0000c0 0d b2 08 3d 19 72 b1 bb ad 3c 4b 3d a1 84 13 3d
       0.033372927 -0.005415213 0.04961841 0.036015157
0000d0 74 e2 7f bd 54 a1 1c 3d 13 9c 8c bc 76 61 5e 3d
       -0.062471822 0.038239792 -0.017164266 0.054292165
0000e0 0d 32 0f bd 42 2b 44 bd dd 2b 2d 3d bb 89 36 3d
       -0.03495984 -0.047892816 0.04227816 0.044564944
0000f0 30 46 53 3d 12 9e 88 3c ca 01 6f 3d 12 26 0d bc
       0.051580608 0.016676936 0.058351316 -0.008615034
000100 46 e7 64 bd 7e 0f 07 bd e9 f9 49 3d 95 6f 28 3d
       -0.055884622 -0.03297376 0.0493106 0.041122038
000110 a3 bd 80 3d 0b 1c 41 3d 51 c6 80 bd d6 02 14 3b
       0.0628617 0.047145884 -0.06287826 0.0022584698
000120 30 76 bf 3c 62 f7 70 3d 3b 61 5f 3d 63 29 00 3c
       0.023371786 0.058829673 0.054536086 0.007822367
000130 7f d6 03 3d 33 80 0a bd ac db 85 3d ae c1 86 3d
       0.03218698 -0.033813667 0.0653604 0.0657991
000140 25 d4 43 3d c3 51 8f 3a b3 f4 67 bd 4a 6c 8f 3d
       0.04780974 0.0010934401 -0.056629848 0.070030764
000150 cc 76 9c ba 70 e7 da 3c 82 49 76 bd 75 61 3e 3d
       -0.001193726 0.026721686 -0.060128696 0.04647966
000160 fb 43 2d bc 58 98 38 bd b5 db 8d 3d f8 66 6f bd
       -0.01057529 -0.04506716 0.069266714 -0.058447808
000170 a7 a4 bf 3c f9 84 02 bd 40 02 6c 3d aa 66 94 3b
       0.023393942 -0.031865094 0.057619333 0.00452884
000180 47 22 91 bd ad 25 07 3b 63 be 2f bb fd 95 ae bc
       -0.07086616 0.0020621822 -0.002681636 -0.021311754
000190 bd 1c 94 3c 05 d3 6d bd 68 b3 86 3d 1c 9d cf bc
       0.01808011 -0.058062572 0.06577188 -0.02534347
0001a0 98 ca 70 bd 65 07 0f 3c cb 45 f6 bb bd d0 32 3d
       -0.05878696 0.00872979 -0.007515644 0.0436561
0001b0 4f 1c cb 3c 00 ee 46 bd 3e e5 18 3d ce 15 79 bd
       0.024793772 -0.04856682 0.037327997 -0.06081181
0001c0 2f cb 2f 3c 0f 41 76 bd 15 0e 30 bd 2e f0 56 bd
       0.010729595 -0.06012064 -0.04298218 -0.052475147
0001d0 7a 37 45 bc db 72 fe bc 15 61 82 bd 37 9d 04 bd
       -0.012037152 -0.031060627 -0.06366173 -0.032376494
0001e0 d7 78 9e 3c e0 93 da 3b ed 6a 89 3c f8 20 1a bd
       0.01934473 0.00667046 0.016774619 -0.037629098
0001f0 e6 34 8b bd 5c 09 8d bb af 67 12 bd eb 18 38 bd
       -0.06797199 -0.0043040942 -0.03574341 -0.04494564
000200 a9 98 46 bd ce 4e 4b 3c 38 cb ac bc 3c fc 76 bc
       -0.04848543 0.012408925 -0.021092996 -0.015074786
000210 39 5e 86 3c e1 43 6e bd 76 7c 16 3d ec be 04 3d
       0.01640235 -0.058170203 0.03673979 0.03240864
000220 d3 a7 8c 3c fd 17 6a bc 1b 6c 0c bd cc 0c 49 3d
       0.017169869 -0.014287946 -0.034282785 0.04908447
000230 f0 c6 25 3c a5 49 13 3c 15 a9 64 3d c3 e9 3a 3d
       0.010118231 0.008989726 0.05582531 0.04563309
000240 df 55 b9 39 10 24 3d 3d 76 d5 c5 3c b9 55 06 3d
       0.0003534993 0.04617697 0.024149638 0.032796595
000250 72 2b 5e 3d 8d 3d ac bc 77 c8 49 3d 27 82 36 3d
       0.05424065 -0.021025443 0.049263444 0.044557717
000260 12 71 96 bc b8 e9 5e bd 47 b4 3c bc b5 43 90 3c
       -0.018364463 -0.05442211 -0.011517591 0.01761041
000270 ad c7 23 bd 0c cc f9 bc f3 51 6a 3d 3e 06 16 3d
       -0.039985348 -0.030492805 0.05720706 0.036627047
000280 21 0d 32 bc cd 25 12 bd ef dc 6a 3d bb 9d 22 bb
       -0.010867388 -0.03568058 0.057339605 -0.0024813253
000290 91 87 1d bd 06 27 b1 b9 a5 1e 70 bc ae 21 14 bd
       -0.038459364 -0.00033789146 -0.014655744 -0.036164932
0002a0 3a c1 1a 3c 99 64 4c 3d 07 6e 54 bc a7 e7 c3 bb
       0.009445483 0.049900625 -0.012965686 -0.005978543
0002b0 7f e9 3e bb 99 ee 88 bd 12 be d1 3c 63 04 69 3d
       -0.0029130874 -0.06686134 0.025603328 0.05688895
0002c0 bb 62 19 3c 12 17 c2 3c ae 12 3f 3d 51 b3 07 bd
       0.009361918 0.023692641 0.046648674 -0.033129994
0002d0 76 4e 51 bd 19 6b 28 bd 2b 8a ed 3c 2c 85 51 3d
       -0.051100217 -0.04111776 0.028996548 0.051152393
0002e0 6d b7 7d bd b7 ff e0 ba 7c 80 f1 bc 75 fe 7d 3d
       -0.061942507 -0.0017166053 -0.029480211 0.062010247
0002f0 38 f2 1a bd d9 1f 14 bd 16 89 71 bd 2c 0f 87 bd
       -0.037828654 -0.036163185 -0.058968626 -0.06594691
000300 97 e8 04 3d f5 a6 20 3a bc a0 8b bd 78 5e ca bc
       0.032448377 0.0006128394 -0.06817767 -0.02470325
000310 39 7d 86 bd 4d ff 04 3d e2 9b 6d 3d f7 8e 04 bd
       -0.06566853 0.032470036 0.05800999 -0.032362904
000320 1a bb 03 bd f7 92 37 bd a2 1c 06 3d 3e d6 86 bd
       -0.032160856 -0.04481789 0.03274215 -0.06583832
000330 0f 7e 30 3c f3 e4 5b 3d 73 32 4e 3d cb 24 bd bc
       0.010772242 0.05368514 0.05034108 -0.023088833
000340 7f e5 56 3d c0 05 79 3d 21 0e f1 3b 02 38 73 3d
       0.05246496 0.0607965 0.0073564206 0.059379585
000350 4c ed a0 bb 18 41 64 bc 13 46 71 bd 07 71 51 3d
       -0.0049111005 -0.013931535 -0.05890472 0.051133182
000360 f7 b9 98 3c 1f a1 5d bd cd 5c 89 bd 08 83 b2 bb
       0.018643362 -0.054108735 -0.067071535 -0.005447749
000370 12 8e 0d bd 0c cf 07 3d 29 65 00 bd 7f b6 58 bc
       -0.034559317 0.03315644 -0.031346474 -0.013227104
000380 49 d6 f4 3c 4c 2f 03 bd ad 38 ad 3c 3d 20 13 bd
       0.029887335 -0.032027528 0.02114519 -0.035919417
000390 90 d1 81 3d 7a 29 36 bd 39 19 51 3d ff 74 ec bc
       0.06338799 -0.04447315 0.051049445 -0.028864382
0003a0 1e 9b 83 bd f4 77 6c bd b0 47 88 bc a2 3b 5f bd
       -0.06426071 -0.057731584 -0.016635746 -0.05450023
0003b0 79 87 5b 3d 00 0f 64 bb 1c e7 ff bc f9 d9 85 bd
       0.053595994 -0.003479898 -0.031238131 -0.065357156
0003c0 ff 45 99 3c ba b5 7f 3d 90 d0 a2 bb 60 59 06 3d
       0.018710135 0.062429167 -0.0049687102 0.03280008
0003d0 3a eb 81 3c 1a 05 1a bd 30 42 8b 3c 8b cf 87 3d
       0.015859235 -0.03760252 0.016999334 0.066313826
0003e0 b9 90 3a 3d 70 28 c0 bc a7 96 7e bd 3e d2 29 bd
       0.045548175 -0.023456782 -0.062155392 -0.04146027
0003f0 9c f6 04 3d e5 b4 e0 bc b6 bd c1 3c 16 3c 90 3c
       0.032461748 -0.027430007 0.023650032 0.017606776

conv2.bias f4 [16]
000000 e5 91 24 bd 84 70 57 bd fe cc 06 bd 55 07 66 3d
       -0.0401782 -0.052597538 -0.03291034 0.056159336
000010 06 8c 45 3d 25 e8 e0 3c 6e 12 3c bd a5 f4 1f 3c
       0.04822924 0.027454445 -0.045916013 0.009762918
000020 3e 09 86 bd 30 2d dc bb 4d 6f 85 3d c3 03 5e 3d
       -0.065447316 -0.006719254 0.065153696 0.054202806
000030 13 5f da 38 80 6e a4 bc 6d 5e 11 bc c9 d3 b2 bc
       0.00010412759 -0.020072222 -0.0088726105 -0.021829503

conv3.weight f4 [32, 16, 5, 5]
000000 aa bc 19 bd 18 90 7e bc ee f9 a7 3c ad 3d 27 bd
       -0.03753344 -0.015537284 0.020504918 -0.040830303
000010 60 c4 0f 3c 7e d9 d9 3c 16 e2 92 bc 1e b8 9c 3c
       0.008774847 0.026592966 -0.017930072 0.019130763
000020 ef 69 4a bd eb d6 01 3d 7b fc 19 bd a7 57 08 3d
       -0.049417432 0.031699102 -0.0375943 0.033286717
000030 1f f2 3f bd ae 2f 8b 3c 8a f4 f9 bc 58 d0 38 bc
       -0.046861764 0.016990509 -0.030512113 -0.011280142
000040 aa 7f d3 3c ad 07 31 bd f4 39 89 bc 2b f1 37 3d
       0.02581771 -0.04322021 -0.016751267 0.04490773
000050 1c 28 56 3c 23 0f d6 bc 63 ff ea bc 32 44 3d bd
       0.013071086 -0.026130265 -0.028686231 -0.046207614
000060 d2 c2 27 bd 7a 1b 2f bd 23 52 c2 bc 4d 31 41 bd
       -0.04095728 -0.042750813 -0.023720806 -0.047166158
000070 d6 4f 93 3c 14 29 54 bc fd 62 4c 3d 5d 04 01 bd
       0.017982405 -0.012949247 0.04989909 -0.0314983
000080 07 d0 d4 bc 3d 26 49 bd 8c 23 27 bc a0 dc 2b 3c
       -0.025978101 -0.049108732 -0.010201346 0.010489613
000090 5a e9 82 3c e0 2e 18 3b 98 be 86 3b 42 08 e9 3c
       0.015980411 0.00232213 0.004112076 0.02844632
0000a0 00 e8 8c b9 c8 1b 54 bc e4 73 6d 3c 63 7f b9 bc
       -0.00026875734 -0.012946077 0.0144929625 -0.02264375
0000b0 28 c3 00 3c 37 2c 34 3d 40 ad bf 3a 1a 9d e9 bc
       0.007859029 0.04398748 0.0014623776 -0.028517295
0000c0 4a 2d d4 3c 50 0e 3b 3b b2 5f b8 3c 1a e7 3f bd
       0.025900502 0.0028542466 0.022506569 -0.046851255
0000d0 9e e2 eb 3c e1 03 02 3d 83 cc 23 3d 74 8a 91 bc
       0.028794583 0.03174198 0.03998996 -0.017766215
0000e0 55 92 3d 3d 60 b5 28 3c 3a ce f5 3c 00 a9 87 39
       0.04628213 0.010297149 0.030005563 0.0002587512
0000f0 50 ef 18 bb e3 27 ae bc a7 c8 41 3d 30 37 83 bb
       -0.0023336 -0.021259254 0.047310498 -0.0040043816
000100 5a 75 ce bc 4e 2f 94 3c e7 5f f3 bc 39 98 3b 3d
       -0.025202442 0.018088963 -0.029708816 0.045799468
000110 54 18 62 3c 30 4b 9e bb c7 67 cd bc 8b 3c 42 bd
       0.013799746 -0.0048307404 -0.025073899 -0.04742102
000120 38 ce 07 3c 8b d3 1c bd 00 0e 6d bb b5 65 3e bd
       0.0082889125 -0.03828768 -0.0036171675 -0.046483714
000130 b0 d6 be bb 28 ba 7b bc 16 73 d2 3c 4d 33 44 bd
       -0.0058239326 -0.015364207 0.025689643 -0.047900487
000140 4c 6e 3a 3c 4c 41 3f bc 98 c2 2c bc c7 25 30 bd
       0.011378836 -0.011673283 -0.010544442 -0.043004777
000150 80 dd d1 b9 06 91 89 3c e0 2b 00 bc 5b b6 17 3d
       -0.00040028617 0.016792785 -0.007822961 0.037039142
000160 43 0c 3b 3d bd f7 29 bd a1 7e 04 3d e9 f6 37 3d
       0.04566599 -0.041496027 0.032347325 0.044913206
000170 ce f2 87 3c 0b 6f 2f bd a8 6a d0 bb 90 0b d1 3b
       0.01659527 -0.04283051 -0.0063603707 0.006379552
000180 72 b7 a0 3c 5d 34 10 bd 68 16 3c bd 40 53 a8 bb
       0.019618724 -0.035206188 -0.045919806 -0.0051368773
000190 94 95 1b bc 9a 2d 11 bd 3a 73 88 3c 83 f5 1d bd
       -0.009496111 -0.03544388 0.016656507 -0.038564216
0001a0 a4 d6 51 3c e0 12 50 bc 3d 77 3f bd fe cb 00 bd
       0.012807522 -0.012699813 -0.046744574 -0.031444542
0001b0 4e 4a 02 bd 40 99 2e bd 94 95 06 bd f7 cb c1 bc
       -0.031809144 -0.04262662 -0.032857493 -0.023656828
0001c0 b4 10 7a bc 50 43 3d bd 7a 35 c2 bc 9a 36 47 bd
       -0.015262771 -0.046206772 -0.02370714 -0.048636056
0001d0 44 39 6a 3c d0 bf bc bc 85 3a 0d 3d 3b 3f 34 bd
       0.01429588 -0.023040682 0.034479637 -0.044005614
0001e0 96 48 fa 3c 80 27 41 bd d7 50 06 3d a7 c4 c4 bc
       0.03055219 -0.04715681 0.03279194 -0.024019552
0001f0 b8 30 25 3c 02 94 84 3c f3 35 2f 3d 0b a3 37 3d
       0.010082416 0.016183857 0.04277606 0.044833224
000200 6f 09 3d bd 68 b2 9c 3b f0 1b 91 bc 6e a5 ea 3c
       -0.046151575 0.00478201 -0.017713517 0.028643336
000210 8e 38 de 3c 9e cd cc 3c 7f 78 37 3d 96 50 db 3c
       0.027126577 0.02500039 0.04479265 0.026771825
000220 68 74 2e bd f0 13 f4 bb 8b e3 11 3d 52 4f 21 bd
       -0.042591482 -0.007448666 0.035617393 -0.039382286
000230 e0 ab 08 3b ec 46 21 bc f8 de 28 bd ee f8 1c bd
       0.0020854399 -0.009843569 -0.041228265 -0.038323335
000240 ae 9e c5 3c e9 18 11 3d 98 94 16 bc 00 43 fd bb
       0.024123516 0.035424147 -0.009190701 -0.0077289343
000250 c0 bb dd ba da f9 dd bc 18 a3 d8 bb c1 85 23 3d
       -0.0016916916 -0.027096678 -0.006611239 0.03992248
000260 98 84 28 bd c0 f1 e3 3b dd cc 1e bd 28 54 07 bd
       -0.041142076 0.006956309 -0.03876959 -0.033039242
000270 10 9d fe 3b 6f ff 2d 3d ef 8d 2e 3d f5 47 17 bd
       0.007770188 0.04247993 0.042615827 -0.036933858
000280 4d d0 c2 bc 3e d5 f8 3c 87 1a 37 3d a7 44 0a 3d
       -0.023780966 0.03037512 0.044703033 0.03375688
000290 1e 5e c6 3c 5a 41 8a bc 49 4e 41 3d c0 4c 4c 3a
       0.0242148 -0.016876865 0.0471938 0.0007793419
0002a0 37 33 9b bc 72 23 b3 3c 4f 5f 2e bd 72 ca 95 3c
       -0.01894532 0.021867488 -0.042571362 0.01828501
0002b0 46 a6 02 bd 0e 4e 05 bd 0d 64 1b bd 5a b2 f2 3c
       -0.031896852 -0.032545142 -0.037937213 0.02962606
0002c0 8d 49 1d 3d 90 31 0e bd e8 a5 1b 3c 02 e7 42 bd
       0.03840022 -0.034715235 0.009500004 -0.047583587
0002d0 a0 69 0f 3c 2c c9 72 3c b3 21 a3 bc 98 4d 28 3c
       0.00875321 0.014818471 -0.01991353 0.010272406
0002e0 e5 ed 1b 3d d7 b6 39 3d 30 6c 17 3b 20 20 43 bd
       0.03806867 0.045340385 0.0023105256 -0.04763806
0002f0 d9 ed 1f 3d 80 1b f9 bc f2 33 e1 3c 8a b3 c4 3c
       0.03904519 -0.03040862 0.02749059 0.024011392
000300 40 97 da 3b be a8 eb 3c db b9 35 bd 04 43 70 3c
       0.0066708624 0.028766986 -0.0443667 0.014664415
000310 a0 ac 65 3b 20 27 da bc 00 16 01 bc 4a 7b bb 3c
       0.003504552 -0.026629984 -0.00787878 0.022885937
000320 c2 b5 d8 3c 6f 0a 1c 3d 18 9c 3e bd 18 19 70 bc
       0.026453856 0.038095888 -0.04653558 -0.01465442
000330 ec 47 59 bc 83 7f 1a bd e2 30 e0 3c 53 f6 b7 bc
       -0.013261776 -0.03771926 0.02736706 -0.022456324
000340 e5 e8 48 3d ee 04 9f 3c 00 17 a7 3a 93 0c 29 3d
       0.04905023 0.01941153 0.0012747943 0.041271757
000350 e7 9f 9e bc c8 1c 2c 3c bb 68 3e 3d 90 98 ae bb
       -0.019363357 0.010504909 0.046486598 -0.0053282455
000360 9b 42 26 bd 15 f1 3e bd 81 3b 1e 3d 8d b9 04 bd
       -0.040590864 -0.046616632 0.038630966 -0.032403518
000370 44 a2 7f 3c 38 fd 5e bc 92 e5 dc 3c 2a c8 dd 3c
       0.015602652 -0.013610177 0.026964936 0.027072985
000380 b4 f4 22 3c 33 63 a4 bc d3 ad ca bc 23 e1 aa bc
       0.009946037 -0.020066833 -0.024741089 -0.020859307
000390 e0 e3 09 bd 70 90 f5 bb 33 ba b6 bc 7d 5a d3 bc
       -0.033664584 -0.007494025 -0.022305584 -0.025799984
0003a0 3f c9 31 3d 22 55 80 3c c0 9e dd ba a8 0f 4a bc
       0.043404814 0.015665594 -0.0016908273 -0.012332834
0003b0 67 c0 38 bd aa c4 96 bc d6 f8 80 3c 52 f0 ce 3c
       -0.045105364 -0.018404324 0.015743654 0.025261078
0003c0 12 6b da 3c c6 22 24 bd 00 56 32 3a e3 f9 b8 bc
       0.026662383 -0.040072225 0.0006802976 -0.022580093
0003d0 ba 85 04 bd 2b 80 30 3d 63 dc e3 bc d5 e1 09 3d
       -0.032354094 0.04309098 -0.02781505 0.033662636
0003e0 51 57 21 3d 80 a4 1f 3b d8 49 cd bb c3 1d 1a 3d
       0.039389912 0.0024359524 -0.0062649064 0.03762604
0003f0 cd f4 2b 3d 4e f1 86 3c b0 ae a2 bb a0 0a 62 bb
       0.041981507 0.016472485 -0.004964672 -0.0034491196

conv3.bias f4 [32]
000000 40 97 dd bc 6b eb e9 3b 42 1f d1 bc 3f 6c 17 3d
       -0.02704966 0.0071386597 -0.0255276 0.036968466
000010 a2 48 39 3d 8b c2 a0 3c e7 84 96 3c a8 88 e7 bc
       0.045235284 0.019624015 0.01837392 -0.028263405
000020 e5 fc e0 3c 9b 16 46 3d 62 0f 44 3d 90 b2 14 bc
       0.02746434 0.048361402 0.047866233 -0.009075776
000030 50 e4 32 bd 1c c3 31 3d 50 65 13 3b 76 04 c3 3c
       -0.043674767 0.04339896 0.0022490807 0.023805838
000040 b5 66 a2 ba 6e 63 b8 3c ef bc fb bc 60 c9 87 3c
       -0.0012390228 0.02250835 -0.030729739 0.016575515
000050 a6 ed 40 bd e0 0c af 3c cb 6d 9b 3b 55 77 6d bc
       -0.04710164 0.021368444 0.004743313 -0.014493783
000060 62 b9 33 3c 9c e3 ac bc 65 3f fd 3b 08 97 82 3c
       0.010969492 -0.021104626 0.0077285045 0.015941158
000070 93 5b ef bc 56 7b 96 bc 59 e6 ff b8 ae 3b 2d bd
       -0.02921847 -0.018369358 -0.00012202253 -0.042293243

conv4.weight f4 [32, 32, 5, 5]
000000 c9 79 9c bc 8c 12 fe bc e8 9e e7 3b 28 81 1b 3c
       -0.01910104 -0.031014703 0.0070685036 0.0094912425
000010 60 f3 df bb 70 f0 1b bb 4e 70 e7 3c c0 98 bd bc
       -0.0068344325 -0.0023794435 0.028251793 -0.023144126
000020 50 73 ae 3b 10 4d 59 bb 75 42 f0 bc 60 c8 2e 3b
       0.005323805 -0.0033157505 -0.029328564 0.0026669726
000030 2a 21 42 bc fb ac b3 bc 68 a2 b3 3c 72 a9 fd 3c
       -0.011848727 -0.02193307 0.021928027 0.030964587
000040 63 61 10 3d fc 77 26 bc 60 f9 0e bd 80 6c c5 3b
       0.035249125 -0.010160442 -0.03490579 0.006024897
000050 93 9f 8d bc 3e 97 ea 3c e8 0b c1 bc 50 af b1 bc
       -0.017288005 0.028636571 -0.023565248 -0.02169004
000060 ea 3f ab 3c d7 c1 8b bc 6f fa b8 bb af c2 9c bc
       0.0209045 -0.017060203 -0.0056450884 -0.019135801
000070 c3 2b 0e 3a 9f c1 75 3c 06 53 f1 bb 31 25 0f 3d
       0.0005423391 0.014999776 -0.0073646335 0.034947578
000080 f0 22 14 bb 4a 6f de bc 09 d4 e1 bc 40 94 ca 3c
       -0.0022603832 -0.027152676 -0.027566927 0.024728894
000090 58 ef dc bb 9c b1 f9 3c d0 da e2 bc 82 f8 af 3c
       -0.006742399 0.030480199 -0.027692229 0.021480802
0000a0 42 91 c8 3c 14 ae 86 3c 20 60 b0 3c 14 81 0c 3c
       0.024483327 0.016440429 0.021530211 0.0085756965
0000b0 1f 9e 7a 3c 6b a3 a8 3b 55 d2 85 bb d5 49 d5 3c
       0.015296488 0.005146434 -0.0040839114 0.026036182
0000c0 26 0b f7 bc 8f 40 b6 bc e1 d7 f5 bc 0e 76 6e bc
       -0.030156683 -0.02224758 -0.030010166 -0.014554514
0000d0 3f ec 92 bc 50 1f d4 3c b5 05 dc 3c 4d cd 0f bd
       -0.017934917 0.025893837 0.02685819 -0.0351079
0000e0 83 75 b8 3c db 65 e7 bc ec ac d9 bc 80 89 d2 bc
       0.022516971 -0.02824681 -0.026571713 -0.02570033
0000f0 48 62 05 3c d1 71 09 bd 6d 7e a0 bc b2 fd 68 3c
       0.008141108 -0.03355581 -0.019591535 0.014220642
000100 fd 79 ad 3a 3e 70 9f 3b 01 19 fe 3c cc de 17 bd
       0.0013235208 0.0048656752 0.031017782 -0.03707771
000110 99 e2 0b bd cd 82 43 bc 05 25 f0 bc 09 b4 1b 3c
       -0.034151647 -0.011933041 -0.029314527 0.009503373
000120 bf c5 df 3c 65 25 55 3c 74 16 be bc df 09 08 bb
       0.027315972 0.013009404 -0.023204066 -0.0020757837
000130 69 82 f3 bc 66 fa cc bb 94 8b 55 3c f4 9b c7 3c
       -0.02972527 -0.0062554358 0.013033766 0.024366356
000140 d5 09 67 bc e1 da 15 bd 82 bf 7f bb 58 73 9c 3c
       -0.014101465 -0.036585692 -0.003902406 0.019097969
000150 ea 1e 03 3c e7 b6 02 3d d6 60 ff bc 87 3b d6 3c
       0.008002976 0.03191271 -0.031174105 0.026151432
000160 c0 73 0a bb 42 bb b6 bc 94 bb 40 ba ee 92 15 bd
       -0.0021126121 -0.022306088 -0.000735217 -0.036517076
000170 f8 14 98 3c ed 0f ac bc 08 9e ab 3c 50 b9 66 3a
       0.018564686 -0.021003688 0.020949379 0.00088014174
000180 b6 3b 0f 3c 08 50 cd 3c 54 43 fa bc 80 f7 a1 3c
       0.008742264 0.025062576 -0.030549683 0.019771338
000190 f1 f6 2b 3c 80 7e 87 ba 40 39 99 bc 3f 45 9e 3c
       0.010495887 -0.0010337383 -0.018704057 0.019320128
0001a0 6f 32 4b 3c d9 be 25 3c 8c bc 49 3c 21 b7 93 3c
       0.012402161 0.010116302 0.0123130195 0.018031659
0001b0 67 d5 84 bc 01 e4 2d 3c b6 4f 70 bc 5a 2f ae bc
       -0.01621504 0.010613442 -0.014667442 -0.021262813
0001c0 ac e9 0b 3c 00 59 12 bd e6 9d f5 3c 5a 20 0e bd
       0.008539598 -0.03572941 0.029982518 -0.03469882
0001d0 e7 ac 34 bc 49 4e a2 bc 12 cc f3 3c 16 dc 9a bc
       -0.011027551 -0.01981272 0.029760394 -0.018903773
0001e0 10 3b 41 3c 43 8c 91 39 6e 8f ea bc d2 d0 f3 3b
       0.011793867 0.00027761058 -0.028632846 0.007440665
0001f0 27 93 81 bc ce 4b b0 3c f9 43 94 3c 0d 0b 5c bb
       -0.015817238 0.021520521 0.018098818 -0.0033575923
000200 e0 9d b8 bc 76 d8 0a 3d 29 7b 66 3c b6 b6 c8 bc
       -0.022536218 0.03389784 0.01406745 -0.024501186
000210 73 70 fb 3c 8f 19 aa bc b8 03 d1 39 2a 49 33 3c
       0.030693268 -0.02076414 0.00039866357 0.010942737
000220 2a 20 a5 3c 2b d0 00 bd 91 34 4a bc 39 28 fd bc
       0.020156939 -0.031448524 -0.012341634 -0.030902969
000230 77 17 e5 3c 18 42 3a bc e2 c1 08 bc 15 c2 21 bc
       0.02796529 -0.011368297 -0.0083470065 -0.009872933
000240 81 a5 a4 3c 30 b5 fa 3c f1 c7 f3 3c 0b 6f 86 bc
       0.02009845 0.030603975 0.029758425 -0.016410371
000250 0d 73 49 3c de a6 ee bc b0 06 e0 3c b0 9e d5 bc
       0.012295497 -0.029132303 0.027346939 -0.026076645
000260 f7 fb 78 bc 9c 78 bb bc 4a 42 04 3d ee 0d 91 3b
       -0.015196792 -0.02288466 0.03228978 0.0044267094
000270 16 81 84 3c b2 56 b8 3c ea c1 21 bc 44 8f 25 3c
       0.016174834 0.022502277 -0.009872893 0.010104958
000280 e8 45 09 3d 3c ac d7 3c 4b f4 29 bb 57 c5 52 bc
       0.033513933 0.026327245 -0.0025932963 -0.012864432
000290 29 35 e0 3c 39 d2 b6 bc 1a 54 06 bd ac 13 5a 3b
       0.027369099 -0.022317039 -0.03279505 0.0033275886
0002a0 73 7a ce 3c d8 a0 5e 3c 32 0f 6b bc 9f 0d b4 3b
       0.025204873 0.013588153 -0.014346885 0.005494788
0002b0 27 0a 94 3c 39 26 02 3d f6 47 a4 3c 2a 72 7e 3c
       0.018071247 0.031774733 0.020053845 0.0155301485
0002c0 62 6f 85 bc c0 2c c5 bc 6c 24 72 bc 8c b2 68 3c
       -0.016288463 -0.02406919 -0.014779191 0.014202725
0002d0 78 a6 06 bd b3 2d 68 bc 7e 3a 5f 3c 97 b2 98 bb
       -0.0328736 -0.014171052 0.0136247855 -0.0046599614
0002e0 63 5a fb bc b8 35 ac 3a ab ef e7 bc 98 fc 18 3a
       -0.030682748 0.0013138568 -0.028312525 0.0005835979
0002f0 13 06 62 bb 69 6f 97 bc 00 0f b0 3c aa 0e a3 3c
       -0.0034488484 -0.018485742 0.021491528 0.019904453
000300 33 2a 20 3c 3c 21 fe bc f7 0c e0 3b 6c e5 a0 3b
       0.009775686 -0.031021707 0.006837483 0.0049101617
000310 97 69 dd 3c 30 de 8f 3c 23 3c 25 bc 3b a2 13 bd
       0.027027888 0.017562002 -0.0100851385 -0.036043387
000320 22 80 8e 3c 82 87 28 bb 23 99 14 bd 1a dd 08 bd
       0.017395083 -0.0025715535 -0.036278855 -0.033413984
000330 2f 11 eb 3c fe e5 5f 3c af fa e5 3c ba a0 a5 3c
       0.028694717 0.013665674 0.028073637 0.020218242
000340 b2 1f 86 bc 76 4b 4d bc 2c 6d 1e bc c6 9e 08 bc
       -0.016372535 -0.012530198 -0.009669583 -0.008338636
000350 d9 79 9f 3b 10 bf fa bc 62 42 10 bc ff 5c a1 3c
       0.0048668203 -0.030608684 -0.008804889 0.019697664
000360 c5 1a 0c 3c 7b c8 f3 3c 6e d1 66 3c e2 04 36 bb
       0.008551304 0.029758682 0.014088018 -0.0027773906
000370 df 94 12 3c d4 f0 3e 3b eb f5 d9 3a 5f 50 ed bb
       0.008946626 0.0029135244 0.0016629075 -0.007242247
000380 96 18 ed bc 79 d9 9e bc d6 d3 9d ba 38 7e 4b 3c
       -0.028942388 -0.019390808 -0.0012041281 0.01242023
000390 52 a7 85 3c 4c f5 eb 3c d9 9c 0a 3c 38 24 62 3c
       0.016315136 0.02880349 0.008460247 0.013802581
0003a0 21 e7 9a 3c b8 35 97 3b 5a 39 aa 3b 6e 19 3c bb
       0.018909039 0.004614558 0.005194825 -0.002870168
0003b0 c4 68 a3 3b 93 ca 29 3c f0 1b f2 bc f1 3e f2 bc
       0.0049868543 0.010363239 -0.029554337 -0.029571028
0003c0 8d 5b 98 3c b0 68 4e bc af 64 9d 3c 6c f9 d0 bc
       0.018598342 -0.012598202 0.019213049 -0.025509559
0003d0 bf 82 d6 bc 88 55 e1 b9 bc 89 97 3c 21 f5 07 bd
       -0.026185391 -0.0004297907 0.018498294 -0.033192758
0003e0 0f 93 27 bc 39 c0 f7 3c 08 82 9c b9 70 73 94 bc
       -0.010227933 0.030243026 -0.0002985152 -0.018121451
0003f0 33 4c cf b9 75 9e 16 3c b4 a8 a1 3c 15 d1 c3 bc
       -0.0003953889 0.009193053 0.019733764 -0.023903409

conv4.bias f4 [32]
000000 40 01 6d 3b 9e e6 c8 bc 47 7a da 39 02 7e 66 b9
       0.0036164075 -0.02452403 0.00041671304 -0.00021981451
000010 7a 18 94 3c 43 f8 96 bc 12 0a 0a 3d 35 32 08 3b
       0.018078078 -0.018428927 0.03370101 0.002078188
000020 f6 cc 94 bc 5d ac 02 bd 46 cd d7 bc 23 ce f0 3c
       -0.01816414 -0.03190266 -0.026343 0.029395169
000030 66 a2 c7 3b b2 c4 cd 3c dd dc 15 3c b0 70 f1 bb
       0.0060923574 0.025118206 0.009146896 -0.0073681697
000040 9a 45 82 bc 68 ee 49 3c 6b 4d 0d 3d cb d6 3f bc
       -0.01590233 0.012324907 0.03449766 -0.0117089255
000050 79 94 02 3d cf cc 94 bc 6a 65 14 3b 24 c8 c6 bc
       0.031879876 -0.018164067 0.0022643455 -0.024265356
000060 de b3 0c 3d d4 45 43 bc 24 96 55 bc d9 fe c4 bc
       0.034351222 -0.011918504 -0.013036285 -0.024047302
000070 c1 c7 85 3b 70 d5 84 3c da 50 c9 bb 88 d7 51 3a
       0.0040826504 0.016215056 -0.0061436715 0.0008004834

fc1.weight f4 [3, 10368]
000000 a5 51 f5 bb 63 6c b4 3b 67 b2 74 3b 81 0f 19 bc
       -0.0074865394 0.0055060848 0.0037337781 -0.009342075
000010 fd 97 5a bb 84 db 24 bb 5a 9b d5 3a 9d de 71 bb
       -0.0033354752 -0.0025155256 0.0016296909 -0.003690637
000020 3a de 0a 3b 41 44 fe bb e7 6e a9 bb e5 0f b6 3a
       0.0021189586 -0.0077596013 -0.0051706913 0.0013890235
000030 b2 21 07 3c 3d 9c 17 3c 33 c6 ee bb 92 71 bd ba
       0.00824778 0.009253559 -0.007286811 -0.0014453402
000040 a5 1b a2 bb 82 48 3f 3b 29 97 0e 39 34 f5 a4 ba
       -0.004947143 0.0029187505 0.00013598487 -0.0012585283
000050 8e c0 09 3c 99 b2 ba 3a 93 46 c5 ba 15 7f 5c 3b
       0.008407725 0.00142439 -0.001505094 0.0033645083
000060 5a dc 6b 3b e4 2f 9a 3b 31 e7 60 3b b3 3d 18 3b
       0.0035989494 0.004705416 0.0034317488 0.0023230135
000070 89 4f e4 3b 0d 63 0b 3c 98 8e a7 3b 0f cf bc 3b
       0.006967489 0.008507502 0.005113434 0.005761988
000080 71 50 9c 3b 4b 1e 80 ba 11 45 31 bb b2 c0 28 ba
       0.0047703316 -0.0009774653 -0.0027049223 -0.0006437405
000090 bd 9a eb bb 10 78 b2 ba 11 d8 f2 3a 6b ce ae bb
       -0.007190077 -0.0013616104 0.0018527528 -0.0053346655
0000a0 6e ea 10 3c 77 bc ab ba 23 f6 94 bb 61 bb 80 b8
       0.008844955 -0.0013102432 -0.0045459433 -6.138418e-05
0000b0 38 75 14 3c 48 7a 08 3c 0a 89 85 bb f0 e1 50 3b
       0.00906115 0.008329935 -0.004075174 0.003187295
0000c0 7a 85 da bb e2 8e a5 3b bf 09 d4 bb 10 df 1b bc
       -0.0066687437 0.0050524333 -0.0064708884 -0.009513631
0000d0 74 8b a3 3b 11 45 f6 3b b5 4a 1d 3c 4c d8 f1 bb
       0.0049909893 0.0075155576 0.009600331 -0.007380521
0000e0 0d 07 27 3c 84 ca c0 bb 0e 40 0c 3c 99 32 fe bb
       0.010194552 -0.0058835167 0.008560194 -0.0077574966
0000f0 5c 76 be b9 89 55 b2 3b 98 d0 2d bb 14 65 10 bb
       -0.0003632781 0.0054423255 -0.0026522037 -0.0022032904
000100 56 18 da bb 0a df ef ba d0 2a 03 3b 5e 65 1b 3b
       -0.006655733 -0.0018300724 0.0020014532 0.0023711543
000110 73 d2 b9 bb 1d a3 a1 ba 0e 19 1f bc fc ec e0 bb
       -0.0056708395 -0.0012331937 -0.009710563 -0.0068641882
000120 95 c2 fd 3b c4 73 13 bc c0 9a 0e 3a 56 b7 1a bc
       0.0077441433 -0.008999769 0.00054399297 -0.009443125
000130 6d c6 14 bc 20 73 c3 3b 69 9d 75 3b db 28 b3 3b
       -0.0090805115 0.0059646517 0.0037477857 0.005467517
000140 0b 11 f6 bb 63 a2 fa bb 58 2c 1c 3c 25 0e 0d bc
       -0.007509356 -0.0076487525 0.009532057 -0.008609329
000150 aa 34 a7 bb 72 e5 20 3a e3 44 24 3b 99 b6 38 3a
       -0.0051027136 0.00061377056 0.0025065474 0.0007046252
000160 49 b9 c8 3b 82 7f 7c bb f3 eb 10 3b 21 3b c2 3b
       0.0061256033 -0.003852815 0.0022113293 0.005927459
000170 6f 71 5c 3b f8 c4 ab 3a a8 48 e6 b9 f4 6d 26 3b
       0.0033636948 0.0013104966 -0.00043923152 0.0025395127
000180 d9 80 7c 3b b4 48 08 3c 2e ed ba 3a a5 52 89 3b
       0.0038528948 0.008318115 0.0014261359 0.00419076
000190 eb fd f9 3b fb 26 21 3c 80 46 df bb 9a d5 de 3b
       0.0076291463 0.009835954 -0.006813824 0.0068003656
0001a0 9c ed af 3b 98 9e 9c bb 02 cb f4 bb 12 6a 28 bc
       0.0053689014 -0.004779648 -0.0074704895 -0.010279195
0001b0 d3 5f 89 bb 81 31 28 3b a3 fe b1 3b 6c a3 0d 3c
       -0.0041923313 0.0025664272 0.0054319664 0.00864492
0001c0 71 ae 49 3b 80 38 79 38 68 e3 bb bb 1b 75 50 3b
       0.0030774141 5.9418846e-05 -0.005733896 0.0031808082
0001d0 b7 91 0a bc 58 5a ff 3b 66 71 a8 3a fc 1e 40 3b
       -0.008457593 0.0077927522 0.0012851178 0.0029315343
0001e0 ed 22 1a 3c 46 c9 c2 bb 28 5c 02 bc f5 4b eb 3b
       0.009407741 -0.005944404 -0.007956542 0.0071806856
0001f0 58 b3 29 bc a0 ec a9 ba af 64 22 3c 1c 41 e9 3a
       -0.0103577 -0.0012964197 0.0099117 0.0017795893
000200 9b bc 0e bb c5 fc c3 3b 08 e4 b0 39 32 3d 0d 3c
       -0.0021779898 0.00598106 0.00033739232 0.008620547
000210 1d 06 4c bb af 2b b2 3b ec f3 8f 3b b3 bb 46 3b
       -0.0031131573 0.0054373364 0.0043930914 0.003032428
000220 29 16 ad b9 dc 8f ed 3b a7 1a 42 3b 00 60 5a 3a
       -0.00033013642 0.0072498154 0.0029617937 0.0008330345
000230 10 93 40 3b 18 db e4 3b 46 4f 5b 3b c2 60 bb bb
       0.002938453 0.006984126 0.0033463999 -0.0057183215
000240 0a 2f 19 3c ad 6f ea bb 05 b1 14 3c 4e 83 4b bb
       0.009349594 -0.007154426 0.009075408 -0.0031053605
000250 6a 01 51 39 25 f4 93 bb 9c 72 73 bb e7 ce f9 3b
       0.0001993232 -0.0045151883 -0.003714717 0.0076235416
000260 53 00 d5 37 24 82 fa 3b 34 b7 d0 3b 96 2d 5c bb
       2.539173e-05 0.0076449085 0.0063694958 -0.0033596507
000270 bf 2a bf ba 48 c1 0c 3c 51 3b 99 39 37 ea ff 3b
       -0.0014584883 0.008591004 0.00029226628 0.007809903
000280 eb fe 71 3b e8 0f 0d 3c 6c 59 6d ba af db 84 3b
       0.0036925625 0.008609749 -0.00090541574 0.0040545086
000290 19 fa b3 bb 3e 12 15 3b dc cb 5d ba 0d 62 b5 bb
       -0.0054924604 0.002274647 -0.00084608584 -0.00553537
0002a0 e0 83 13 3c 80 48 61 39 be 54 e5 3a 9f d3 e4 ba
       0.009003609 0.0002148468 0.0017496569 -0.0017458088
0002b0 dd 33 07 3b 2a 27 10 3c 33 db 84 bb d1 28 4b bb
       0.0020630278 0.0087984 -0.004054451 -0.003099967
0002c0 17 01 05 bc c3 c3 e6 3b 7f 56 04 3c 09 e0 b0 3b
       -0.008117936 0.0070423796 0.008077263 0.005397801
0002d0 9b 04 ec b9 4e 18 b4 3a 09 e5 80 3b fd 39 40 bb
       -0.0004501686 0.0013740154 0.003933553 -0.0029331439
0002e0 66 92 08 3c ce ce 21 3c d7 dc bd bb cd 0b e7 3b
       0.008335685 0.009875966 -0.0057941484 0.0070509673
0002f0 92 e4 74 3b f9 fa bd 3a e5 8a 45 3b 96 33 8e 3b
       0.0037367684 0.0014494351 0.0030142602 0.0043396456
000300 76 ad 90 bb da 81 00 ba 4a f0 85 39 90 03 9a bb
       -0.0044152094 -0.0004902162 0.00025546766 -0.0047001317
000310 91 12 79 bb 1d 31 b3 bb 0c 88 35 bb cd 8d 20 3c
       -0.0038005451 -0.0054685012 -0.0027699498 0.009799433
000320 ec 6a a6 3b 75 5b 9b 3b 26 21 7b bb c9 37 01 3c
       0.005078664 0.004741127 -0.0038319319 0.007886835
000330 bb 7d e2 bb f4 0b 05 3c e2 6d 83 bb e8 ba 19 bc
       -0.006911961 0.008120526 -0.004010902 -0.009382941
000340 62 5b 65 3a fd f4 9e 3b 4d 8a a3 3b 48 66 1f 3a
       0.0008749274 0.004850982 0.004990852 0.000608061
000350 a9 12 bc bb 4e eb 19 bb a6 1e 1b bc 7f 09 1f bb
       -0.005739529 -0.00234862 -0.009467756 -0.0024267135
000360 67 65 6d ba 59 6f 04 bc d2 3a 57 b7 67 8f 3d 3b
       -0.00090559426 -0.008083188 -1.2828694e-05 0.0028924586
000370 6b a0 32 bb 08 de f9 3a b4 50 86 bb 5a c3 0f 3c
       -0.002725626 0.0019063363 -0.004098976 0.008774603
000380 ac ae 1f bb fe 98 62 3a 39 4a 19 bc 83 35 de 3b
       -0.0024365587 0.00086440134 -0.009356075 0.0067812814
000390 7e 70 09 3c 9a 30 40 ba 52 8d 16 bc a4 ed f0 bb
       0.008388637 -0.0007331461 -0.009188967 -0.0073525477
0003a0 f8 fa 8d b8 b1 03 12 bb c3 98 97 ba 52 b5 01 bb
       -6.7701505e-05 -0.0022280032 -0.0011565912 -0.0019791913
0003b0 8a 6f c1 bb 0a 1d cf 3b d1 23 27 3c 22 ab cf bb
       -0.005903189 0.0063206004 0.01020141 -0.0063375393
0003c0 d4 8c 6c 3b 03 42 fd bb 9f 60 5b 3b 28 46 a4 3a
       0.0036094682 -0.0077288165 0.0033474339 0.0012533115
0003d0 1a c4 c1 3a 8b a7 1d 3b fe ca 14 bc ab 7b 0e 3c
       0.0014783174 0.0024056162 -0.0090816 0.008696477
0003e0 10 1e 4f bb cf a7 02 bc 3a 65 d4 bb 13 a3 0a 3c
       -0.0031603612 -0.007974579 -0.0064817937 0.0084617315
0003f0 30 35 a9 bb d4 89 13 bc 33 2b 96 3a 19 f9 d0 bb
       -0.005163811 -0.009005029 0.0011456966 -0.006377351

fc1.bias f4 [3]
000000 cf 83 f0 3b bd 4d 3d 3b 72 c3 89 3a
       0.0073399316 0.0028885447 0.0010510518
