shapes1.onnx (onnx, 340978 bytes, 10 tensors)

conv1.weight f4 [8, 3, 5, 5]
0	0xbb419f89	-0.0029544553
1	0xbdcf0aec	-0.10109505
2	0xbc1800d9	-0.009277546
3	0xbd7e63d6	-0.06210693
4	0x3dafad9c	0.08578035
5	0x3dc62f3d	0.09676979
6	0x3bfb0726	0.0076607643
7	0xbd04837e	-0.032351963
8	0x3d661d0a	0.056180038
9	0x3cb56027	0.022140576
10	0xbdd2a0c4	-0.1028457
11	0x3dbb28b3	0.09138622
12	0x3dbba0a0	0.09161496
13	0xbd883161	-0.06650043
14	0x3d9b58de	0.075853094
15	0x3d16795f	0.036736842
16	0xbc9ceab2	-0.01915488
17	0x3cf8bfa9	0.030364828
18	0x3dd7716a	0.10519679
19	0xbd22bd6d	-0.03973143
20	0x3db7f0ba	0.08981462
21	0xbdb468ee	-0.08809076
22	0xba953097	-0.0011382279
23	0x3d0c6308	0.03427413
24	0x3dbf8b06	0.093526885
25	0x3cd78c96	0.026312154
26	0x3d8192e7	0.063268475
27	0xbd2bfa13	-0.041986536
28	0x3ddff9a7	0.10936289
29	0xbd8484b9	-0.06470627
30	0xbd05e862	-0.03269232
31	0x3c0aa9a7	0.0084633
32	0x3dc45246	0.09586005
33	0xbd41171a	-0.047141172
34	0x3cb3774c	0.021907471
35	0xbdab0a35	-0.08351556
36	0x3d4b7fe8	0.049682528
37	0x3d7bf3b5	0.061511714
38	0x3caa7aea	0.020810563
39	0xbda5d18b	-0.08096608
40	0x3dc87bc4	0.097892314
41	0xbda4bb9c	-0.08043596
42	0xbd603095	-0.05473383
43	0xbdc084d3	-0.09400334
44	0x3d15cd37	0.03657266
45	0x3d1f4be4	0.038890734
46	0xbde8f302	-0.11374475
47	0xbd9b1d10	-0.075739026
48	0xbc957a6b	-0.01824685
49	0xbd8033d7	-0.06259888
50	0x3d9b3b8c	0.07579717
51	0xbca13b56	-0.019681614
52	0xbdaa2b2a	-0.08309014
53	0xbd4081c5	-0.046998758
54	0xbdc0b783	-0.09410002
55	0x3d910f0b	0.07082947
56	0x3dd63c52	0.10460724
57	0x3db3ae92	0.08773531
58	0xbc83b3db	-0.016076973
59	0x3dd993a3	0.106238626
60	0xbc2c7fac	-0.010528486
61	0x3c858b59	0.016301798
62	0x3cafb078	0.021446452
63	0xbdb1de9d	-0.08685038
64	0xbc66becf	-0.014083578
65	0x3ce92f51	0.028464945
66	0x3c9496a7	0.018138243
67	0x390ce657	0.00013437249
68	0xbd564e23	-0.05232061
69	0xbd4a73a5	-0.049426693
70	0xbdb1ce07	-0.08681875
71	0xbd6bb1d8	-0.057542652
72	0xbcd8fbbd	-0.026487226
73	0xbdbf9861	-0.09355236
74	0xbda97288	-0.08273798
75	0xbd830d71	-0.06399048
76	0x3deeff2d	0.11669765
77	0xbd5c16d4	-0.053732708
78	0xbdd730f3	-0.10507383
79	0xbd0c04d0	-0.034184277
80	0x3c5e38e6	0.01356337
81	0xbd4d69ef	-0.050149854
82	0xbc01e175	-0.007927288
83	0x3c857714	0.016292132
84	0xbc883ab1	-0.016629549
85	0x3def8989	0.116961546
86	0xbcbdce22	-0.02316958
87	0xbc85bc80	-0.016325235
88	0xbdeb75c6	-0.11497073
89	0xbd82a062	-0.06378247
90	0x3dc56936	0.09639208
91	0xbd89f3f0	-0.067359805
92	0xbd5d787d	-0.054069985
93	0x3cf5f7f0	0.030025452
94	0x3d3a5deb	0.045499723
95	0x3d17ad3a	0.037030436
96	0x3da87c14	0.08226791
97	0x3df94678	0.12171644
98	0xbdb3266a	-0.08747561
99	0x3df29d90	0.11846459
100	0x3dd6aee4	0.104825765
101	0x3db8b0b5	0.09018079
102	0x3d5e1c38	0.05422613
103	0x3d85d364	0.0653446
104	0xbd97c229	-0.0741008
105	0x3d9af218	0.07565707
106	0xbb005923	-0.001958438
107	0xbda775a8	-0.08176738
108	0x3db812e8	0.08987981
109	0x3d18a2f1	0.037264768
110	0xbdb02344	-0.086004764
111	0xbdc894ab	-0.09793981
112	0xbdadb989	-0.08482654
113	0xbd06abb3	-0.03287859
114	0x3ca93e50	0.020659596
115	0xbd8718a8	-0.065965
116	0xbceabce9	-0.028654533
117	0x3dc0679f	0.09394764
118	0xbd0be536	-0.03415414
119	0xbdb8efcc	-0.090301126
120	0x3c985a58	0.018597767
121	0xbdaab795	-0.08335797
122	0xbd115c74	-0.03548856
123	0x3da8e395	0.08246533
124	0xbdd99831	-0.10624731
125	0xbd973e08	-0.073848784
126	0x3d459e0c	0.04824643
127	0x3dd53941	0.10411311
128	0xbd8149cc	-0.06312904
129	0xbd33b94e	-0.043877892
130	0x3dd3a997	0.10335081
131	0x3dd419d8	0.10356492
132	0x3da58766	0.08082466
133	0x3d885db3	0.06658497
134	0xbdc84ce3	-0.0978029
135	0x3d242637	0.040075507
136	0xbdc44129	-0.09582741
137	0xbdb8ae26	-0.09017591
138	0xbc0e63fd	-0.008690831
139	0x3d94d4cb	0.072671495
140	0x3d11f6d9	0.035635803
141	0x3cf8b51b	0.030359795
142	0xbcc49bb5	-0.024000028
143	0xbdc0bb02	-0.09410669
144	0x3cd5d1c4	0.026101
145	0xbd063b63	-0.03277148
146	0xbcda598b	-0.026654026
147	0x3cd9d574	0.02659104
148	0x3c80088a	0.015629072
149	0x3d6fd731	0.058554832
150	0xbd940aa2	-0.072285905
151	0x3d024a83	0.03180934
152	0x3cbe9e0e	0.023268726
153	0xbd53bb06	-0.05169203
154	0xbddbb42f	-0.10727727
155	0x3d800752	0.06251396
156	0xbc84dcf9	-0.01621865
157	0xbddb17bc	-0.10697886
158	0x3cfe091d	0.031010205
159	0x3d248c93	0.040173125
160	0x3d24d531	0.040242378
161	0x3d9c5dca	0.07635076
162	0x3db0ba59	0.08629293
163	0x3ba4d686	0.005030456
164	0x3da6cb2c	0.08144221
165	0x3d9327e6	0.071853444
166	0x3db77476	0.0895776
167	0xbd6345f4	-0.055486634
168	0x3d2df7ae	0.042472534
169	0x3db4c4b2	0.08826579
170	0x3cd8d2b9	0.026467668
171	0x3d65a759	0.0560678
172	0x3cdbf9b2	0.026852462
173	0xbde56ca7	-0.112023644
174	0xbdcb41cb	-0.099246584
175	0xbd1d6401	-0.03842545
176	0xbd1dbc83	-0.038509857
177	0x3c20b96e	0.009809835
178	0x3d853d6a	0.065058544
179	0xbde37083	-0.11105444
180	0x3da08f43	0.07839825
181	0xbd44294b	-0.047890943
182	0xbd30a808	-0.043128997
183	0xbd4faef8	-0.050703973
184	0xbcb068dd	-0.021534378
185	0xbdf75d3b	-0.12078329
186	0xbc407479	-0.011746519
187	0x3b35efe6	0.0027761399
188	0xbde075e4	-0.10959986
189	0xbd5bb15c	-0.05363594
190	0x3dd283ee	0.1027907
191	0x3cbe136e	0.023202624
192	0xbde126f0	-0.10993755
193	0xbdd75493	-0.10514178
194	0xbdee7834	-0.11644021
195	0xbd32b4dd	-0.043629516
196	0xbd54bd91	-0.051938597
197	0xbd849511	-0.06473745
198	0xbdb679a0	-0.08909917
199	0xbdc258b1	-0.09489573
200	0x3c518cc0	0.012789905
201	0xbdcc7166	-0.099825665
202	0x3d416d4d	0.047223378
203	0xbddbae81	-0.10726643
204	0x3d699a68	0.05703202
205	0xbca22da2	-0.01979715
206	0xbd9fdf7f	-0.078063
207	0xbc254143	-0.01008636
208	0xbd1bba00	-0.03801918
209	0xbd6520ac	-0.05593936
210	0x3bb3d9af	0.0054885964
211	0xbcd4b8af	-0.02596697
212	0x3b21909d	0.0024652847
213	0xbdcdfceb	-0.10058006
214	0x3c140918	0.009035371
215	0xbd480de6	-0.04884138
216	0x3aefa62d	0.0018283777
217	0xbd25d85a	-0.040489532
218	0x3dc94f87	0.09829622
219	0x3cb1d602	0.021708492
220	0xbdf834e2	-0.121194616
221	0x3d2e3589	0.042531524
222	0x3c8e6c40	0.017385602
223	0xbd58ba56	-0.05291208
224	0xbbc3c01a	-0.005973828
225	0xbd7d056f	-0.06177276
226	0x3de852ad	0.11343894
227	0xbd1cf15d	-0.03831612
228	0x3dc395d0	0.09550059
229	0x3d02e97c	0.03196095
230	0x3dbfe8c1	0.09370566
231	0xbcb58116	-0.02215628
232	0x3ca14c00	0.01968956
233	0xbcd36f29	-0.025809841
234	0x3d40c9bd	0.047067393
235	0x3cc41cef	0.023939578
236	0x3da798c5	0.08183435
237	0x3d988a86	0.07448296
238	0xbbd92c9f	-0.0066276337
239	0xbd301da2	-0.04299701
240	0xbdd115f6	-0.10209267
241	0x3d4a8c16	0.049450003
242	0xbded0972	-0.11574067
243	0xbac87d4d	-0.0015296132
244	0xbbd30511	-0.006439813
245	0x3dcd7fbf	0.10034131
246	0x3d8f0a2a	0.069843605
247	0xbdcb6baf	-0.099326484
248	0x3d9a8153	0.07544198
249	0x3dc8efd4	0.098113686
250	0xbd58da52	-0.05294258
251	0x3d34d373	0.044146966
252	0xbd931f05	-0.07183651
253	0x3d3288bd	0.043587435
254	0xbd27c8dd	-0.040963043
255	0xbdc03bc1	-0.09386397

conv1.bias f4 [8]
0	0x3d1d83d4	0.0384558
1	0xbd830416	-0.06397264
2	0xbdce9324	-0.100866586
3	0x3c518d1c	0.012789991
4	0xbde7d375	-0.11319629
5	0xbd327145	-0.043565053
6	0x3d87168e	0.06596099
7	0x3df343e3	0.11878183

conv2.weight f4 [16, 8, 5, 5]
0	0x3d12c283	0.035830032
1	0x3d1387af	0.03601807
2	0x3c58fbb8	0.013243608
3	0xbd81c408	-0.06336218
4	0x3d2803ee	0.041019373
5	0xbc61af5b	-0.013774718
6	0x3db6a72e	0.08918606
7	0xbcb90766	-0.022586536
8	0xb9d89304	-0.00041308266
9	0x3d2da86a	0.04239694
10	0x3d92b6c8	0.07163769
11	0x3d938b51	0.07204307
12	0x3d2fcde7	0.042920973
13	0x3da566f7	0.080762796
14	0x3d05ea44	0.032694116
15	0x3d6ce507	0.057835605
16	0x3df59b77	0.11992543
17	0x3d308fef	0.043106016
18	0x3dbd226d	0.09235082
19	0xbd11bee0	-0.035582423
20	0x3d9b2ca9	0.075768776
21	0x3dd72758	0.10505551
22	0x3bf03991	0.007331081
23	0x3d44c17b	0.04803608
24	0xbc3fc910	-0.011705652
25	0xbd1d88ac	-0.03846042
26	0xbd1e2429	-0.038608704
27	0x3ca95fd8	0.020675585
28	0xbd13c089	-0.036072288
29	0x3cc22390	0.023698598
30	0xbd667636	-0.05626508
31	0xbd8f97d9	-0.070113845
32	0x3d10debf	0.035368677
33	0x3db6d7d4	0.08927885
34	0x3d82ee50	0.06393111
35	0x3ca2512f	0.019814102
36	0x3dc166ee	0.094434604
37	0x3d9fa89c	0.077958316
38	0x3d564c1b	0.052318674
39	0x3df23de3	0.1182821
40	0x3cd24da4	0.025671788
41	0x3de0b215	0.109714665
42	0x3c947b33	0.018125152
43	0x3dea696b	0.11445888
44	0x3d49f78d	0.04930835
45	0x3d83553c	0.064127415
46	0x3dc2f555	0.095194496
47	0x3d8bff36	0.06835787
48	0x3df777bf	0.12083387
49	0xbb491d5c	-0.0030687666
50	0xbc85eb51	-0.01634756
51	0x3d529ec5	0.051420946
52	0x3d936ebb	0.071988545
53	0xbca2e60e	-0.01988509
54	0xbd47e3c9	-0.048801217
55	0x3d26d0b7	0.04072639
56	0xbd489c66	-0.04897728
57	0xbd4cf805	-0.050041217
58	0x3d702f15	0.05863865
59	0x3cf0ea17	0.029408498
60	0xbd101543	-0.035176527
61	0x3c91b1df	0.01778501
62	0x3d8780d0	0.06616366
63	0x3d6caf8b	0.0577846
64	0x3d1f4496	0.038883768
65	0x3c14f8c4	0.0090925135
66	0xbd8b391e	-0.067980036
67	0xbd58250c	-0.052769706
68	0x3d4844e1	0.048893813
69	0x3d5d08af	0.05396336
70	0x3b587af0	0.003303226
71	0xbd7554f2	-0.059895463
72	0x3d39b8ba	0.045342185
73	0xbcc1d5d8	-0.023661539
74	0x3b992846	0.0046739904
75	0xbabbd8ca	-0.0014331576
76	0x3da1e6f3	0.07905378
77	0x3d8bce9b	0.06826516
78	0x3cc58f9a	0.024116326
79	0x3d6691a7	0.05629125
80	0x3c20417c	0.009781238
81	0x3d761cca	0.06008605
82	0x3d0d56f5	0.034506757
83	0x3d7d691f	0.06186783
84	0xbcbdd90c	-0.023174785
85	0xbaea83bd	-0.0017892044
86	0xbc39830e	-0.01132275
87	0x3d28a9ee	0.041177683
88	0x3ce15f13	0.027511155
89	0x3d60f69b	0.05492268
90	0x3c89ea26	0.016835283
91	0x3d973281	0.0738268
92	0x3c9796dc	0.018504553
93	0xbcd42cc5	-0.025900254
94	0x3d282bde	0.04105746
95	0x3d5acc4b	0.053417485
96	0xbd1c6896	-0.03818568
97	0xbcf50680	-0.029910326
98	0xbc8a6fd5	-0.016899029
99	0xbbd04363	-0.0063556894
100	0x3ccb9d44	0.024855264
101	0xbd1ff9a3	-0.03905643
102	0x3d2cf2a8	0.042223603
103	0xbbe0fa30	-0.006865762
104	0xbd76a5ea	-0.06021682
105	0xbd883cd5	-0.06652228
106	0x3ac81c40	0.0015267208
107	0x3d8b1e0b	0.067928396
108	0xbc7ae740	-0.015313923
109	0xbc2d1688	-0.010564454
110	0x3cd77590	0.026301175
111	0xbd4431e5	-0.047899146
112	0x3bd9ffb0	0.006652795
113	0x3c9a5fbc	0.018844478
114	0xbc1910b8	-0.009342365
115	0x3cfe9754	0.031078018
116	0xbc701350	-0.014653042
117	0x3d00f8ec	0.03148739
118	0xbae9a600	-0.0017825961
119	0xbc436338	-0.011925511
120	0x3c057548	0.008145638
121	0xbd6838d9	-0.05669484
122	0xbd332490	-0.04373604
123	0x3bad4170	0.005287342
124	0x3d4dac62	0.050213225
125	0x3d73d560	0.059529662
126	0xbcd074af	-0.025446264
127	0x3d85cf3e	0.06533669
128	0xbd0161c1	-0.031587366
129	0x3d10556e	0.035237722
130	0xbc387543	-0.011258426
131	0x3d91df0f	0.07122623
132	0x3d68d024	0.056839123
133	0xbd3e8333	-0.04651184
134	0xbc406f0c	-0.011745226
135	0x3d8fce4e	0.07021771
136	0xbd7a9565	-0.06117763
137	0xbce62d8b	-0.028097888
138	0x3c19dd9c	0.009391215
139	0x3cc1bf81	0.023650886
140	0xbd546da6	-0.05186238
141	0xbbf27fa6	-0.007400471
142	0xbd8f1c67	-0.06987839
143	0x3ccc2e0b	0.024924299
144	0xbc715736	-0.014730265
145	0x3da13fc6	0.07873492
146	0xbc812965	-0.015766809
147	0x3d869b77	0.06572621
148	0x3cf12911	0.029438527
149	0x3d2565c6	0.04038026
150	0x3c4c228e	0.01245941
151	0x3c83fa7e	0.016110655
152	0xbd236f2a	-0.039900936
153	0xbd687e1e	-0.0567609
154	0xbd56dc92	-0.052456446
155	0x3c28f2c2	0.010311784
156	0xbd42e8e5	-0.047585387
157	0x3d7659d3	0.060144257
158	0xbd4df89a	-0.050285913
159	0xbd87205e	-0.065979704
160	0xbd450996	-0.048104845
161	0x3db7ddae	0.08977829
162	0xbb60c71b	-0.0034298364
163	0xbd5317fa	-0.051536538
164	0xbd0410f3	-0.032242727
165	0xbd129bac	-0.03579299
166	0x3dc1da1d	0.0946543
167	0x3c8c5800	0.017131805
168	0x3d9d93bf	0.07694196
169	0x3d04714a	0.032334603
170	0x3d98eb96	0.074668095
171	0x3d7caae2	0.061686404
172	0x3b458e92	0.0030144793
173	0x3d702bbb	0.058635455
174	0x3e04e613	0.12978391
175	0xbcc2d571	-0.023783417
176	0x3daaed36	0.08346026
177	0xbc54a150	-0.012977913
178	0x3d11eba3	0.03562511
179	0xba4ec2d5	-0.00078873086
180	0xbbbf3681	-0.005835355
181	0xbce64768	-0.028110221
182	0x3db1f592	0.08689417
183	0x3c6f69e7	0.014612651
184	0xbd17da7b	-0.037073594
185	0xbd46468b	-0.04840712
186	0x3d108a51	0.03528816
187	0x3dea1346	0.11429457
188	0x3e02174e	0.12704203
189	0x3c9959e7	0.018719627
190	0x3c7a71ab	0.01528589
191	0xba8ac4db	-0.0010587232
192	0x3b1c82e6	0.0023881732
193	0x3d5355cb	0.05159549
194	0x3db553f8	0.088539064
195	0x3d445ac9	0.047938142
196	0x3d16e08e	0.036835246
197	0x3dea1a51	0.11430801
198	0x3dae6d5e	0.08516954
199	0x3de7d870	0.11320579
200	0x3db2408b	0.08703717
201	0x3cab0dfb	0.02088069
202	0x3d5c43c4	0.053775564
203	0x3ccbc4e9	0.024874168
204	0x3d8da6ab	0.06916555
205	0xbd1c0921	-0.038094644
206	0xbc5b3a7b	-0.013380642
207	0x3d7f559f	0.062337514
208	0x3be3b797	0.006949376
209	0xbd15dd2b	-0.036587875
210	0x3c0ef152	0.008724527
211	0x3dac9b32	0.08428039
212	0xbc3813cd	-0.01123519
213	0x3d880a7e	0.06642626
214	0x3d379209	0.044817004
215	0xbb39cf14	-0.0028352188
216	0xbd0dd616	-0.034627996
217	0xbd14ca7e	-0.036325924
218	0x3d76d016	0.06025704
219	0x3c13dd7c	0.009024974
220	0xbd443509	-0.04790214
221	0xbbe5d88c	-0.00701434
222	0x3ca6a671	0.020343037
223	0x3ca71989	0.020397918
224	0x3d52854b	0.05139665
225	0xbcec3d26	-0.028837752
226	0x3d41d3f6	0.047321282
227	0x3da22254	0.07916704
228	0xbd16b681	-0.036795143
229	0x3c7511b6	0.014957836
230	0xbd580d42	-0.05274702
231	0x3d9235a6	0.07139139
232	0xbcf3027b	-0.029664269
233	0xbbba8076	-0.0056915833
234	0xbcbd289c	-0.023090653
235	0x3d2b9a26	0.041895054
236	0x3d01e8cc	0.031716153
237	0x3940330b	0.00018329562
238	0x3d5bd4b9	0.053669665
239	0xbc6807dc	-0.01416203
240	0x3d651f69	0.05593816
241	0x3d94eec0	0.072721004
242	0x3b7589c9	0.003746616
243	0x3cc7c446	0.024385583
244	0x3cf55a65	0.02995033
245	0xbc8351c3	-0.016030198
246	0xbd35546a	-0.044269957
247	0xbd1aab01	-0.03776074
248	0x3cfbeeb8	0.030753478
249	0x3d2ef915	0.042718012
250	0xbd876593	-0.066111706
251	0xbbe6ca9c	-0.007043196
252	0xbd19e605	-0.03757288
253	0x3d8df3b5	0.06931249
254	0xbd75ba0b	-0.059991878
255	0x3d8a4bac	0.067527145

conv2.bias f4 [16]
0	0xbcecd90b	-0.028912088
1	0xbc80d845	-0.015728125
2	0x3d2ba535	0.0419056
3	0xbcee0195	-0.029053489
4	0xbd89bb16	-0.06725137
5	0xbd452dfe	-0.048139565
6	0x3d8ad406	0.067787215
7	0xbd357141	-0.04429746
8	0x3cc253de	0.023721632
9	0xbc905ee9	-0.017623382
10	0x3d006a12	0.031351157
11	0xbbd5385b	-0.0065069622
12	0xbb828814	-0.003983507
13	0x3d75840d	0.059940387
14	0xbc8e4325	-0.017366001
15	0x3d0dabfb	0.03458784

conv3.weight f4 [32, 16, 5, 5]
0	0xbcd4c162	-0.025971118
1	0xbd02b64b	-0.03191213
2	0x3d72ef24	0.059310094
3	0x3cebf381	0.028802635
4	0x3ac1607d	0.0014753487
5	0xbc7ffd5e	-0.015624372
6	0x3d9e6ba4	0.077353746
7	0x3d9f453c	0.07776877
8	0x3d84f123	0.06491306
9	0x3d4bd7b2	0.04976625
10	0x3c887e22	0.016661707
11	0xbc87d6ef	-0.01658198
12	0x3d08daf3	0.03341193
13	0x3d88fef4	0.066892534
14	0xbc77325b	-0.015087689
15	0x3c9c5550	0.019083649
16	0xbc9c6e1a	-0.01909547
17	0x3cb601c4	0.022217639
18	0x3d0cf66e	0.0344147
19	0xbcee9f11	-0.029128583
20	0x3d3d1660	0.046163917
21	0x3cea8f67	0.028632833
22	0xbc3e75da	-0.011624778
23	0xbb44e130	-0.0030041449
24	0xbd137e14	-0.03600891
25	0x3d2ae2cd	0.0417202
26	0xbd146f33	-0.03623886
27	0xbc4c3feb	-0.012466411
28	0x3bb0ffd9	0.005401593
29	0xbc8e5619	-0.017375039
30	0xbca51ea2	-0.020156208
31	0x3d552de3	0.052045714
32	0x3d8153fb	0.06314846
33	0x3c48b4be	0.012250124
34	0x3d5646f4	0.05231376
35	0x3d0ba49d	0.034092534
36	0xbd11b942	-0.035577066
37	0x3ca3dd0a	0.02000286
38	0x3d9c84af	0.07642495
39	0x3cc93221	0.024560036
40	0xbc071060	-0.00824365
41	0x3d83a8f6	0.06428711
42	0x3d0f3679	0.03496406
43	0x3d5e6386	0.05429413
44	0x3c747ddf	0.014922588
45	0x3d34c13a	0.044129588
46	0x3c7f2bd2	0.015574412
47	0xbb46c74f	-0.00303312
48	0x3d314250	0.04327613
49	0x3d05c01a	0.032653905
50	0x3b96a251	0.0045969863
51	0xbc895b08	-0.01676704
52	0xbcbf3253	-0.023339426
53	0xbc87621d	-0.016526276
54	0x3d01de83	0.031706344
55	0xbc527a00	-0.01284647
56	0x3d3a3011	0.045455996
57	0xbd398c7e	-0.0453
58	0xbbb0fbf1	-0.0054011275
59	0x3c86186d	0.016369069
60	0x3d404ba0	0.04694712
61	0x3d05cb34	0.032664493
62	0xbd017eaa	-0.031614937
63	0xbcca875c	-0.024722748
64	0xbc2fc55e	-0.010728208
65	0x3c0157ee	0.007894499
66	0xbce8fa74	-0.028439738
67	0xbc59c560	-0.013291687
68	0x3cc37b4c	0.023862503
69	0xbcf7d08d	-0.030250812
70	0xbbb3f1b0	-0.005491458
71	0x3d583061	0.052780513
72	0x3c729f84	0.014808539
73	0x3d222c7b	0.0395932
74	0x3d01b1fd	0.031663883
75	0xbd2fa271	-0.042879526
76	0x3c7f61b4	0.015587259
77	0x3d199de9	0.03750411
78	0x3c192046	0.0093460735
79	0x3d56c72d	0.052436043
80	0x3d271f52	0.040801354
81	0x3c7c8227	0.01541189
82	0x3cb03b11	0.02151254
83	0xbb45bf7b	-0.0030173946
84	0x3c1c173c	0.009527024
85	0x3c9bb185	0.019005546
86	0x3d87ca31	0.06630362
87	0xbc3ad886	-0.011404162
88	0x3cb28ae9	0.021794753
89	0x3da78202	0.08179094
90	0xba82fb10	-0.0009993035
91	0xbc2c00e0	-0.0104982555
92	0x3da0a7a3	0.07844474
93	0x3cd8effa	0.026481617
94	0x3c9f835b	0.019471815
95	0x3cba6e4a	0.022757668
96	0xbca29517	-0.019846482
97	0x3d3592dd	0.044329513
98	0x3c973271	0.01845667
99	0x3d1cd36b	0.03828756
100	0x3ba236bf	0.004950374
101	0x3b3152ab	0.002705733
102	0xbd4bbff6	-0.049743615
103	0xb81f0208	-3.7910446e-05
104	0xbc975517	-0.018473191
105	0xbd8b21d5	-0.06793562
106	0x3caeb4c2	0.021326426
107	0xbd051f38	-0.032500476
108	0xbc87314a	-0.016502995
109	0xbcc82a85	-0.024434337
110	0x3c8ffa37	0.017575366
111	0x3c846880	0.01616311
112	0xbd288eef	-0.041151937
113	0x3ca05e5c	0.019576244
114	0xbcb9d8eb	-0.022686442
115	0x3d348ef3	0.04408164
116	0x3d272607	0.04080775
117	0xbd1ce57e	-0.0383048
118	0x3c61b947	0.013777084
119	0xbd5df06b	-0.05418436
120	0x3c238d25	0.009982382
121	0x3c4a04bc	0.01233023
122	0xbcf52916	-0.029926818
123	0x3d0edb7f	0.034877297
124	0x3cb9a5fa	0.022662152
125	0x3c32b0d7	0.01090642
126	0xbd8febe4	-0.070274144
127	0xbd72b6c4	-0.05925633
128	0xbd800ac7	-0.062520556
129	0xbd3f84d7	-0.046757545
130	0x3c04942d	0.0080919685
131	0xbcece0b6	-0.028915744
132	0x3af7ab64	0.0018895683
133	0xbd38588b	-0.045006316
134	0xbcb6e105	-0.022324095
135	0xbd2ef331	-0.042712394
136	0x3acf4118	0.0015812246
137	0xbd0b613b	-0.034028273
138	0xbc843ab4	-0.016141273
139	0xbc586bdb	-0.0132093085
140	0x3d472918	0.048623174
141	0x3c9b39e2	0.0189485
142	0x3d49c822	0.049263127
143	0x3d657cad	0.056027103
144	0xbc89fd6e	-0.016844478
145	0xbcaca7a6	-0.021076035
146	0x3d8ec7ce	0.069717035
147	0x3d0ac4e0	0.03387916
148	0x3d7362bb	0.05942033
149	0x3d1d38d3	0.03838427
150	0x3c415fbc	0.01180261
151	0x3cfc42de	0.030793604
152	0xbcc27d51	-0.023741396
153	0xbc1aeead	-0.009456319
154	0x3b517799	0.0031962155
155	0x3d0dc27a	0.034609295
156	0x3d3a244c	0.04544477
157	0xbd1793aa	-0.037006058
158	0xbc84a268	-0.016190723
159	0xbb765dc5	-0.0037592512
160	0x3d488b59	0.048961017
161	0x3cc64ee1	0.024207534
162	0x3cb38557	0.021914167
163	0xbd161f2b	-0.036650818
164	0xbc0f321d	-0.008739975
165	0xbcf87c3a	-0.030332673
166	0x3bb9d1f0	0.0056707785
167	0x3b951463	0.0045495494
168	0x3c6e3f4c	0.014541458
169	0xbc5dc165	-0.013534878
170	0x3c6e4a53	0.014544087
171	0x3cac83d4	0.021058954
172	0xbd399f44	-0.045317903
173	0x3d0afea5	0.033934254
174	0x3cabf520	0.020990908
175	0x3cb63f7a	0.022247065
176	0xbd127b8c	-0.035762355
177	0xbcc3b8e7	-0.02389188
178	0x3d181449	0.03712872
179	0xbce304e4	-0.027712293
180	0x3cad554e	0.02115884
181	0x3d6c5182	0.05769492
182	0xbc3d4411	-0.011551873
183	0xbc9e9a95	-0.01936082
184	0xbc0a9de3	-0.008460495
185	0x3bfd1218	0.007723104
186	0xbca799a1	-0.020458998
187	0x3d6eaae4	0.058268443
188	0x3d45e513	0.048314165
189	0xbcc01df6	-0.023451786
190	0x3c84da9c	0.016217522
191	0x3c5f36b3	0.013623881
192	0xbd2295ab	-0.039693516
193	0x3d2d0936	0.042245112
194	0x3bacab52	0.0052694464
195	0x3cddbdb0	0.02706799
196	0xbd0faa3d	-0.03507446
197	0xbaee6ba4	-0.0018190038
198	0x3c9a7d89	0.018858688
199	0x3d23ed18	0.040021032
200	0x3c030670	0.00799714
201	0x3c28cb40	0.010302365
202	0x3d0f3b7f	0.03496885
203	0x3c1ed302	0.009693863
204	0x3d7081b7	0.058717456
205	0xbab9a85a	-0.0014164553
206	0x3c93ee87	0.018058075
207	0x3c89f809	0.016841905
208	0x3d727dc5	0.059201974
209	0x3d68816d	0.056764055
210	0xbc144b8d	-0.009051216
211	0xbc20ea05	-0.00982142
212	0xbb6cbc6f	-0.0036123057
213	0xbc03ebe1	-0.008051843
214	0x3d7cadf3	0.06168933
215	0xbcc53dcf	-0.024077324
216	0xbcb11ffa	-0.021621693
217	0x3c9f4eac	0.019446693
218	0x3d459047	0.048233297
219	0x3d883278	0.06650251
220	0xbcbfcf9a	-0.023414422
221	0x3d8157bb	0.063155614
222	0x3d652ae2	0.0559491
223	0x3d64905d	0.055801738
224	0x3d157a94	0.036493853
225	0x3cc2228d	0.023698116
226	0xbc87445f	-0.016512094
227	0xbd3a44bd	-0.04547571
228	0xbd462113	-0.048371386
229	0x3ba4aa14	0.0050251577
230	0x3b89d9dc	0.004206879
231	0x3a456808	0.00075304555
232	0xbd059706	-0.03261473
233	0x3d31dac1	0.04342151
234	0x3d7ea29c	0.062166795
235	0xbc96512e	-0.018349256
236	0xbd04b102	-0.03239537
237	0x3d63510d	0.055497218
238	0x3d2d4983	0.042306434
239	0x3d6f0259	0.05835185
240	0x3d5efe41	0.054441694
241	0x3d403d79	0.046933625
242	0x3d13d438	0.03609106
243	0x3d653586	0.055959247
244	0x3cdde0c0	0.027084708
245	0x3d3b16b5	0.045675952
246	0xbb9ad8e1	-0.004725561
247	0x3cf444ef	0.029818026
248	0xbcb694bb	-0.022287717
249	0xb9b73bbd	-0.00034948988
250	0xbd37ca3e	-0.044870608
251	0x3ccadbad	0.024762953
252	0xbb24af19	-0.002512878
253	0xbc127549	-0.008939096
254	0x3be21448	0.0068993904
255	0xbca5ce57	-0.020239992

conv3.bias f4 [32]
0	0xbd14ff13	-0.03637607
1	0xbc84a100	-0.016190052
2	0x3ce7acac	0.028280579
3	0x3d36588c	0.04451804
4	0xbbd37b40	-0.0064539015
5	0xbcdccab5	-0.026952127
6	0x3c982154	0.01857058
7	0x3d354c1e	0.044262044
8	0xbcb86aea	-0.022511918
9	0x3cfd0dbc	0.030890338
10	0x3d4b5dc5	0.049649972
11	0x3c85b5f5	0.016322115
12	0xbd09b28c	-0.03361754
13	0x3d053c3a	0.03252814
14	0x3a6abf6f	0.00089549174
15	0xbd209bb4	-0.03921099
16	0x3cfc1e85	0.030776272
17	0xbcb9094f	-0.022587446
18	0x3cd46a55	0.02592961
19	0x3d49c180	0.0492568
20	0xbce097ee	-0.027416196
21	0x3d3cbc5c	0.04607807
22	0xbb9caab4	-0.0047810916
23	0xbc49966a	-0.012303928
24	0x3cb21b69	0.021741586
25	0x39b128fa	0.000337906
26	0xbc1d5270	-0.009602174
27	0xbaf2edaf	-0.001853397
28	0x3d2efeb2	0.042723365
29	0x3d2704db	0.040776115
30	0xbd15b547	-0.036549833
31	0x3c313201	0.0108151445

conv4.weight f4 [32, 32, 5, 5]
0	0x3b770ed3	0.0037698045
1	0x3c26e259	0.010185801
2	0xbcf9a377	-0.030473454
3	0xbcdcda1b	-0.02695947
4	0xbcfadd63	-0.030623144
5	0x3cff1cba	0.031141628
6	0xbc989d10	-0.01862958
7	0xbc6cd6d1	-0.014455513
8	0xbb74c9fc	-0.0037351837
9	0xbd39442e	-0.045231037
10	0x3bfab061	0.0076504205
11	0x3d079e9d	0.03311025
12	0xbcc6d76d	-0.024272645
13	0x3a029690	0.0004981542
14	0x3c150ae0	0.009096831
15	0x3d0064d9	0.031346176
16	0x3c4d3d95	0.012526889
17	0xbd1379d1	-0.036004845
18	0x3c489a42	0.012243809
19	0xbd024dda	-0.031812526
20	0xbc828994	-0.015934743
21	0x3d074378	0.033023328
22	0xbbb1397a	-0.005408463
23	0xbcd67535	-0.026178936
24	0x3c92e0bf	0.017929433
25	0x3bc577c0	0.006026238
26	0x3cd055e4	0.02543158
27	0xbaa916f8	-0.0012900522
28	0xbc895791	-0.016765388
29	0x3b6241eb	0.0034524153
30	0x3c9ce1ed	0.019150699
31	0xbc2deb0a	-0.01061512
32	0xbd0d7bf0	-0.034542024
33	0x3ca475da	0.020075727
34	0xbd1b4b63	-0.03791369
35	0xbc8fe399	-0.017564582
36	0x3ca77a05	0.020443926
37	0x3bf06baa	0.0073370533
38	0x3c09d1c5	0.008411829
39	0xbc0b696a	-0.008509019
40	0xbc5e21f3	-0.013557899
41	0x3cbc65bf	0.022997735
42	0xb9f5f311	-0.0004691114
43	0x3c1c2bd1	0.009531931
44	0xbd34f999	-0.044183347
45	0x3cca26d7	0.024676723
46	0x3c6c150e	0.014409317
47	0x3ce03a68	0.0273716
48	0x3b12d6d4	0.002240588
49	0x3cb0716a	0.021538455
50	0x3ce02233	0.027360057
51	0xbcb7e796	-0.022449296
52	0xbcbe1709	-0.023204343
53	0x3c682f40	0.0141714215
54	0x3bec80a6	0.0072174845
55	0xbd0d2583	-0.034459602
56	0xbbb16ba8	-0.005414445
57	0xbcd36cd6	-0.025808733
58	0xbd059a55	-0.032617886
59	0x3ce113d4	0.027475275
60	0x3b9f5dd4	0.00486348
61	0x3ce695ff	0.028147696
62	0xbb8dd65d	-0.0043285326
63	0x3ca1e538	0.01976262
64	0xbcef2aa8	-0.029195145
65	0xbb309b3e	-0.0026948
66	0xbcbafc9c	-0.022825532
67	0xbc073c42	-0.008254113
68	0xbbeca5b6	-0.0072219027
69	0xb940a74e	-0.00018372873
70	0x3be9f1b8	0.007139411
71	0x3c693cb7	0.014235667
72	0x3d018c14	0.03162773
73	0xbc3f73f1	-0.011685357
74	0x3c5b2c56	0.01337727
75	0xbc070365	-0.008240555
76	0xbce80180	-0.028321028
77	0x39af5e56	0.00033448887
78	0xbc46abe8	-0.012125947
79	0x3cc216fe	0.023692604
80	0x3c3532b3	0.011059451
81	0x3c93c7ca	0.018039603
82	0xbc563121	-0.013073237
83	0x3c8a4f23	0.016883438
84	0x3a36a594	0.0006967422
85	0xbc2b0a8b	-0.010439525
86	0x3c1cdc45	0.009574001
87	0xbc020951	-0.0079367915
88	0xbcfd4dad	-0.030920828
89	0x3c6a1cae	0.014289064
90	0xbc5cc177	-0.01347386
91	0xbce6a003	-0.028152471
92	0xbc71610d	-0.014732611
93	0x3c6966e5	0.014245723
94	0xbce99815	-0.028514901
95	0x3cfa9d3f	0.030592559
96	0x3d15799a	0.03649292
97	0x3cc56830	0.024097532
98	0xbb6a02a9	-0.0035707152
99	0xbab28669	-0.001362038
100	0x3c6e02b8	0.014527015
101	0xbcb54d32	-0.022131536
102	0x3c9e5e1c	0.019331984
103	0xbba38a0e	-0.0049908226
104	0x3bf33cac	0.007423004
105	0x3c1eb2e1	0.009686203
106	0x3c554ade	0.013018338
107	0xbd11960c	-0.035543486
108	0xbbc9c657	-0.006157677
109	0x3c866193	0.016403949
110	0x3d07ae64	0.033125296
111	0x3c349e67	0.011024094
112	0x3cdf874b	0.027286192
113	0x3c0aef24	0.008479867
114	0x3b684417	0.0035440975
115	0xbba98e39	-0.005174425
116	0x3cdc8592	0.02691916
117	0xbd1850a4	-0.03718628
118	0x3ce4e1ac	0.02793964
119	0xbce393ae	-0.02778038
120	0x3d039c9d	0.03213178
121	0xbbb6e5de	-0.0055816015
122	0x3bada1b5	0.005298818
123	0x3d02533f	0.03181767
124	0x3cf2fa1b	0.029660275
125	0x3c7f0407	0.015564925
126	0xbcd34317	-0.025788827
127	0xbc78de4f	-0.015189721
128	0xbd18c3da	-0.037296154
129	0xbd3071d3	-0.0430773
130	0x3d05b7c7	0.032645967
131	0x3c8ad149	0.016945498
132	0x39ef640c	0.00045660173
133	0x3cf05bbe	0.029340621
134	0x3c7bc88c	0.015367638
135	0x3c10b9d7	0.00883337
136	0xbccc7b5c	-0.024961166
137	0x3c871d7b	0.01649355
138	0x3c8636e1	0.01638359
139	0xbcb9e225	-0.022690842
140	0x3ccf5c7d	0.025312657
141	0x3b5dd7f5	0.0033850644
142	0x3cd09d54	0.025465645
143	0xbc896f0e	-0.016776588
144	0xbcc0738e	-0.0234926
145	0xbbc6cf4f	-0.0060671936
146	0x3d029b62	0.031886466
147	0x3d132e60	0.0359329
148	0xbd026357	-0.03183302
149	0xbd05a523	-0.03262819
150	0xbcb2891f	-0.0217939
151	0x3cad948a	0.021188993
152	0xbd17f800	-0.037101746
153	0x3ced3c56	0.028959434
154	0x3cf43105	0.02980853
155	0x3ca436a2	0.020045582
156	0xbd0e5125	-0.034745354
157	0xbcc84703	-0.024447924
158	0xbcedb8ff	-0.029018877
159	0x3c1d3f26	0.009597575
160	0xbbe4d2a3	-0.0069831177
161	0x3cc238c0	0.023708701
162	0x3cbe3440	0.023218274
163	0xbca4d931	-0.020123096
164	0xbcb82bda	-0.022481848
165	0xbcce9954	-0.025219597
166	0xbc8f91e5	-0.017525623
167	0xbb79a2fc	-0.003809153
168	0x3ce958b8	0.028484687
169	0xbcfa886f	-0.030582635
170	0x3c92a9b5	0.017903188
171	0x3cbda991	0.023152145
172	0xbc46744d	-0.012112689
173	0xbc69b51d	-0.014264372
174	0x3c6bd55c	0.014394131
175	0x3cc89986	0.024487268
176	0xbcebae78	-0.028769717
177	0xbc99d84f	-0.018779902
178	0x3d27ca37	0.04096433
179	0x3cea42af	0.02859625
180	0xbb80d739	-0.0039319065
181	0x3c4bde8e	0.012443198
182	0x3cbffed1	0.023436936
183	0xbc97ad11	-0.018515142
184	0xbcdc2cbc	-0.0268768
185	0x3d056132	0.032563396
186	0x3d02ebfc	0.031963333
187	0xbb923b9f	-0.004462674
188	0x3ac921cd	0.0015345156
189	0xbc102339	-0.00879746
190	0x3c8bc2c7	0.01706065
191	0x3cfb4c32	0.030675981
192	0xbc22933c	-0.009922799
193	0xbc79b37e	-0.015240548
194	0xbc3809a1	-0.011232764
195	0x3c7c7ee8	0.015411116
196	0x3cfeb6bf	0.031093
197	0x3c24f8d4	0.010069091
198	0xbc113427	-0.008862532
199	0xbcb61fa4	-0.022231884
200	0x3cdd4671	0.027011128
201	0x3c032711	0.00800492
202	0x3ce5b26f	0.028039185
203	0xbc926fc5	-0.017875561
204	0xbd2826d8	-0.04105267
205	0xba094534	-0.00052364473
206	0x3c47157f	0.012151121
207	0x3c9d4530	0.01919803
208	0x3cab1f23	0.02088887
209	0x3b97eac1	0.004636139
210	0xbc7cbf6c	-0.015426498
211	0xbd02a94d	-0.03189974
212	0xbc6c534c	-0.014424156
213	0x3b56be5f	0.0032767279
214	0x3cb77c86	0.022398245
215	0x3d060733	0.03272171
216	0x3c55570c	0.013021242
217	0xbb823718	-0.003973853
218	0x3b87cbbb	0.0041441596
219	0xba889ac5	-0.0010422101
220	0xbce92a75	-0.028462628
221	0xbc050a85	-0.008120184
222	0x3c2a465c	0.010392752
223	0xbc7bbe96	-0.015365263
224	0xbcfdd00e	-0.030982997
225	0xbbdbbb7a	-0.0067056986
226	0xbc9d2718	-0.01918368
227	0xbca88431	-0.020570846
228	0xbd0d775b	-0.034537654
229	0x3b1f1b1c	0.0024277633
230	0x3c8f19c9	0.01746835
231	0xbc8cdf06	-0.01719619
232	0x3cc5c672	0.024142478
233	0x3bfb152a	0.007662435
234	0x3c6531a1	0.013988883
235	0xbcc65d62	-0.02421445
236	0x3b9ef989	0.0048515243
237	0xbc8a49c4	-0.016880877
238	0x3c85808a	0.016296644
239	0x3c389dc5	0.011268084
240	0xbbb5dba7	-0.0055498662
241	0x3cd636ce	0.02614918
242	0x3cfbdddb	0.030745437
243	0x3a4f8e02	0.0007917584
244	0x3cbf0177	0.023316128
245	0xbc969fc0	-0.018386722
246	0x3b9dfeb3	0.0048216223
247	0x3c47e760	0.01220116
248	0xbca669c3	-0.020314103
249	0xbcd234fb	-0.025660029
250	0x3ca8d1ed	0.020607913
251	0xbcbbae0c	-0.02291014
252	0xbbf4010e	-0.007446415
253	0xbc7728fa	-0.015085453
254	0x3d1ab9a8	0.03777471
255	0xbcc97d87	-0.024595989

conv4.bias f4 [32]
0	0x3ce271e3	0.027642196
1	0x3cc34d8a	0.023840684
2	0xbccc731c	-0.024957232
3	0xbcecc6cc	-0.028903387
4	0xbbb45ba7	-0.00550409
5	0xbc88744d	-0.016657019
6	0x3cae3f69	0.02127047
7	0xbcb48829	-0.022037582
8	0xbbd14d95	-0.0063874223
9	0xbb766292	-0.0037595374
10	0xbca6993c	-0.02033674
11	0x3c3f8636	0.011689713
12	0xbbc7b8a2	-0.006095008
13	0xbbe3fd5d	-0.0069576935
14	0xbc47b6be	-0.012189565
15	0xbd181ddb	-0.037137847
16	0x3c269e33	0.010169554
17	0x3cde1a96	0.027112287
18	0xbc1fb732	-0.009748267
19	0xbbcdb1c9	-0.006277297
20	0xbc003ada	-0.007826531
21	0xbbb0f2e4	-0.0054000486
22	0xbcaf6867	-0.021412088
23	0xbc2fc947	-0.010729141
24	0xbcacce8c	-0.021094583
25	0x3c3c9088	0.011509068
26	0xbb8b4a56	-0.004250805
27	0x3c2f2159	0.010689103
28	0xbcfb94db	-0.030710628
29	0x3c8cd63b	0.017191997
30	0x3d1bcc14	0.03803642
31	0xbcc85866	-0.024456214

fc1.weight f4 [3, 10368]
0	0xbbdcacf4	-0.006734485
1	0xbb514930	-0.0031934492
2	0xbbc1a4dc	-0.0059095453
3	0x3bc64dd5	0.006051759
4	0x3934e0da	0.00017249901
5	0x3ba9dd3a	0.005183843
6	0x3c531bff	0.012885093
7	0xbb2bbe3e	-0.0026205922
8	0xbb1e0eca	-0.0024117702
9	0xbc0f4a26	-0.008745706
10	0x3bf700a0	0.0075379163
11	0x397cbd3f	0.00024103092
12	0x39f9a6be	0.00047617214
13	0xbbb80e75	-0.005616958
14	0xb852136c	-5.008599e-05
15	0xbbb1416c	-0.00540941
16	0x3c540985	0.012941723
17	0x3bd8503d	0.006601362
18	0xbc1dad0c	-0.009623777
19	0xbaa1bdfd	-0.0012339946
20	0xbbcce5d2	-0.0062529827
21	0x3bc15b2c	0.005900761
22	0x3c69dc66	0.0142737385
23	0x3c34b7e3	0.01103017
24	0x3bfb9cd8	0.0076786093
25	0xbb7b6e6a	-0.0038365372
26	0x3bf1ad14	0.007375369
27	0x3a95280a	0.001137973
28	0xbb6f1b24	-0.0036484683
29	0xba47d4b6	-0.0007622944
30	0xbaabb998	-0.0013101576
31	0x3c053c69	0.008132079
32	0xbb3c9dd3	-0.0028780594
33	0x38bb9e51	8.9463436e-05
34	0x3c1a3592	0.009412186
35	0xbae4c23a	-0.0017452904
36	0xbbf6a85d	-0.0075273947
37	0x3b66e2fa	0.0035230503
38	0x3b91713e	0.0044385483
39	0x3b88e12d	0.0041772337
40	0x3c07d9bf	0.008291661
41	0xba697fea	-0.00089073053
42	0xbb847e94	-0.0040434096
43	0xb847bcf2	-4.7621266e-05
44	0xbc09ad81	-0.008403183
45	0x3c115c2f	0.008872076
46	0x3a3f6bd3	0.0007302139
47	0xbbc2620f	-0.0059320997
48	0xbbc27cac	-0.005935272
49	0x3b216a11	0.002462987
50	0x3b6e1313	0.0036327287
51	0xbab68b21	-0.0013926962
52	0x3c669c33	0.014075327
53	0x3c571437	0.013127378
54	0xbbba19aa	-0.005679329
55	0x3ba8b4d3	0.005148509
56	0xb88458c4	-6.3107844e-05
57	0x3b4cf6da	0.0031275065
58	0x3bbcc468	0.005760718
59	0x3bb449ee	0.005501977
60	0x3a684df6	0.0008861715
61	0xbbc8ffb1	-0.0061339964
62	0x3b467f65	0.0030288335
63	0x3c29e85f	0.010370343
64	0xbb3ffa76	-0.0029293573
65	0xbb9e8a5b	-0.0048382706
66	0xbbf914d1	-0.0076013585
67	0x3c0f3163	0.008739802
68	0x3c17de0a	0.009269247
69	0x3c4531ae	0.01203577
70	0x3b9eed0c	0.0048500355
71	0x3b0bfac3	0.0021359182
72	0x3bc5c6fd	0.006035684
73	0x3bccda17	0.0062515843
74	0x3b78c1d2	0.0037957323
75	0x3b5c1064	0.0033579106
76	0x39d8bf5c	0.00041341304
77	0x3b8c7759	0.0042866883
78	0x3b60baa0	0.0034290925
79	0xbb88ca61	-0.004174516
80	0x3ba94d94	0.0051667187
81	0x3be284e6	0.0069128154
82	0x3be02cfd	0.0068413005
83	0x3ba97a5a	0.005172056
84	0xbba880e4	-0.005142318
85	0xba34be55	-0.0006894817
86	0xbafa01b2	-0.0019073992
87	0x39a0c153	0.00030661616
88	0x3a83458a	0.0010015231
89	0x3b2b1740	0.0026106387
90	0xbb5321f8	-0.0032216292
91	0x3a9d907f	0.0012021213
92	0x3c1fba17	0.009748957
93	0xbb079926	-0.0020690649
94	0xba0943a3	-0.0005236214
95	0xbbb04c5d	-0.005380197
96	0xbb2d268c	-0.002642068
97	0x3b5b23e0	0.0033438131
98	0xbbe38f8f	-0.0069446038
99	0xba54b3a4	-0.0008113927
100	0x3b4d9e17	0.0031374746
101	0x3bd6b7eb	0.0065526864
102	0x3b2c4fd3	0.0026292696
103	0x39537370	0.00020165532
104	0x3bec5ff3	0.0072135865
105	0xb9107a4a	-0.00013778466
106	0x3c08ba6c	0.008345228
107	0x3c51cf29	0.0128057385
108	0x3bd118a3	0.0063811108
109	0x3c09cfa7	0.008411325
110	0xbbd43993	-0.00647659
111	0xbbaa24ed	-0.00519239
112	0xba89fa00	-0.0010526776
113	0x3b9a6b50	0.0047124997
114	0xbba2d2f6	-0.004968996
115	0xb9a9053f	-0.000322381
116	0xbb96dd47	-0.004604015
117	0x3bf5e91f	0.007504597
118	0x3b8fd5c0	0.0043894947
119	0xbb3f1cce	-0.0029161456
120	0x3bf56532	0.00748887
121	0x3bc6bc44	0.0060649235
122	0xbb726713	-0.0036987707
123	0xbac717c7	-0.0015189581
124	0x3c36d6d4	0.011159617
125	0x3c02e927	0.007990158
126	0x3c579477	0.013157955
127	0x3c33f5b6	0.010983875
128	0x3c15dd19	0.009146952
129	0x3badd988	0.0053054728
130	0xba5c514f	-0.000840445
131	0x3b3f3a46	0.002917902
132	0xbbf24fd5	-0.0073947706
133	0xbb7b4d60	-0.003834568
134	0xbbb4657c	-0.005505262
135	0x3a7bbaf6	0.00096027495
136	0xbb776fb8	-0.0037755799
137	0x3b0fcb24	0.002194115
138	0xba832d3f	-0.0010007991
139	0x3c2b0d4d	0.010440183
140	0x3b8d0403	0.0043034567
141	0x3c71de61	0.014762492
142	0x3b6e07d0	0.0036320575
143	0xbaed999a	-0.0018127442
144	0x3c826e57	0.015921755
145	0xbaafec0c	-0.0013421788
146	0x3c0b2eec	0.008495074
147	0x3bb677c4	0.0055684764
148	0xbc2b05df	-0.0104384115
149	0xbc038eed	-0.008029682
150	0xbbb047d8	-0.005379658
151	0x3bf5afe2	0.0074977735
152	0xba13277b	-0.0005613488
153	0x3baa7de7	0.005202997
154	0xbc046444	-0.008080546
155	0x3b43ad1a	0.0029857815
156	0x3c544749	0.012956449
157	0x3c425034	0.011859942
158	0x3c1b4628	0.009477176
159	0x3b3f788b	0.0029216136
160	0x3b47df85	0.0030498218
161	0x3bb537a3	0.005530314
162	0x3c4247bf	0.011857926
163	0xbaf876f7	-0.0018956353
164	0x3c032d84	0.008006457
165	0x3bbb20a7	0.0057106796
166	0x39eafea7	0.0004482169
167	0xbc02b94f	-0.007978751
168	0xbc0c91ac	-0.008579653
169	0xbbf67b05	-0.0075219893
170	0xbbc6aa3d	-0.0060627745
171	0xbc0d61e7	-0.008629299
172	0x3c089406	0.008336073
173	0x3c26bd91	0.010177032
174	0x3a0316f8	0.0005000676
175	0x3b80f59b	0.0039355285
176	0xbb3e0037	-0.0028991827
177	0x3c444a7e	0.011980651
178	0x3c4c50d1	0.01247044
179	0x3bd04b90	0.006356664
180	0x3b8afd7c	0.0042416435
181	0x3accaeb3	0.0015616029
182	0xbb4af3c6	-0.0030968054
183	0xbbfde6f2	-0.007748478
184	0xbbcbf581	-0.0062243347
185	0xbbb0ec3c	-0.005399255
186	0xbbdd2809	-0.0067491573
187	0xb9a72994	-0.000318837
188	0xbc2290ff	-0.009922265
189	0x3b6c3115	0.0036039997
190	0xbb3f8bbb	-0.0029227573
191	0x3b25e535	0.002531362
192	0xbb2ed113	-0.002667491
193	0x3be6def6	0.007045622
194	0x3b01719c	0.0019751554
195	0x3be04d90	0.0068451837
196	0x3a987f09	0.0011634539
197	0x3b1ed6b1	0.0024236853
198	0x3c60f732	0.013730811
199	0xbb1b57ed	-0.002370353
200	0xbba038a2	-0.0048895637
201	0xb8b1c4f0	-8.4767e-05
202	0x3b4a9e27	0.003091702
203	0xbc1b675f	-0.009485095
204	0x3b31ffeb	0.0027160596
205	0xbc3301b5	-0.0109257
206	0xbc0e005b	-0.008667077
207	0x3bb301fa	0.005462882
208	0x3acd0487	0.0015641608
209	0x3afcda62	0.0019291157
210	0x3bdb5d45	0.006694468
211	0x3b8470d1	0.004041769
212	0xbbb298e5	-0.0054503554
213	0xba33f77e	-0.00068651873
214	0xbb100c3a	-0.0021979944
215	0x3bb935ac	0.00565215
216	0x3b51c669	0.003200913
217	0x3c0e8e26	0.008700883
218	0x3b28eb36	0.0025774962
219	0xbc1dd192	-0.009632485
220	0xbba4eea2	-0.00503333
221	0xbb513404	-0.0031921873
222	0x383072df	4.2068652e-05
223	0x3be897b5	0.007098163
224	0xbc432cdf	-0.011912554
225	0xbc060e34	-0.008182097
226	0x3b50b7ae	0.0031847763
227	0x3be10efc	0.0068682414
228	0x3aacb599	0.0013176679
229	0x3b652a75	0.0034967933
230	0x396f6abd	0.00022832579
231	0x3b4291fb	0.0029689062
232	0xbb64804d	-0.0034866512
233	0x3c4b21d8	0.012398206
234	0x3bb24469	0.005440284
235	0xbb8b4f0f	-0.004251368
236	0x3b87af61	0.00414078
237	0xbafc1009	-0.0019230853
238	0xbc33bb6e	-0.01096998
239	0xbc4a34a5	-0.012341653
240	0xbb73b546	-0.0037186905
241	0xbc3f7f2a	-0.011688033
242	0xbbd1f837	-0.0064077633
243	0xbb8434cd	-0.0040346147
244	0x3b1be9e2	0.0023790528
245	0xbb654942	-0.0034986292
246	0x3c46bf17	0.01213052
247	0x3c04af77	0.008098475
248	0xbadf8b11	-0.0017054995
249	0x3bdc76cf	0.0067280303
250	0x3c41f1a5	0.011837398
251	0x3b495dfe	0.003072619
252	0xbae167b7	-0.0017197047
253	0x3b61361d	0.003436453
254	0x3c0c43a6	0.0085610505
255	0xbbc31383	-0.0059532537

fc1.bias f4 [3]
0	0x3b4b4431	0.0031015987
1	0xbc29ac6d	-0.010356051
2	0x3be350d0	0.006937124
